ckpt/ckpt_best_actor_0.pth (torch, 120452 bytes, 10 tensors)

bn1.weight f4 [156]
0	0x3f8cde3c	1.100532
1	0x3f947c89	1.1600505
2	0x3faaf945	1.3357321
3	0x3f9d47e8	1.2287569
4	0x3f97dc36	1.1864078
5	0x3f8a503b	1.0805734
6	0x3f8def27	1.1088609
7	0x3f8e8890	1.1135426
8	0x3f9cb36b	1.2242254
9	0x3f92869f	1.1447333
10	0x3f938852	1.1525977
11	0x3f994a11	1.1975728
12	0x3faa4814	1.3303246
13	0x3f8a4dc6	1.0804985
14	0x3f8aa211	1.0830709
15	0x3f8d0d87	1.1019753
16	0x3f8a8a90	1.0823536
17	0x3f8e8fee	1.1137674
18	0x3f8cc9a0	1.0999031
19	0x3f9bc495	1.2169367
20	0x3f9b5346	1.2134788
21	0x3f90c9c2	1.1311572
22	0x3f947a55	1.1599833
23	0x3f9820e3	1.1885036
24	0x3fada466	1.3565795
25	0x3f8a6a17	1.0813626
26	0x3f8e1030	1.109869
27	0x3f86cb24	1.0530744
28	0x3f8cf288	1.1011515
29	0x3f9c8ba7	1.2230119
30	0x3f87c78e	1.0607774
31	0x3f911ad8	1.1336317
32	0x3f89cfb3	1.076651
33	0x3f96896b	1.1760687
34	0x3f8ebab8	1.1150732
35	0x3f8e138c	1.1099715
36	0x3f90b983	1.1306614
37	0x3f8bef50	1.0932407
38	0x3f8a139b	1.0787233
39	0x3f8b75fb	1.089538
40	0x3f9a7fcb	1.2070249
41	0x3f949f09	1.1611034
42	0x3f8c247e	1.0948637
43	0x3f971b18	1.1805143
44	0x3f8eb1f9	1.1148063
45	0x3f980a15	1.1878077
46	0x3f8af281	1.0855256
47	0x3fa1d842	1.2644122
48	0x3f8ba2fa	1.0909111
49	0x3f976224	1.1826825
50	0x3f8d362d	1.1032158
51	0x3fa8d3e0	1.3189659
52	0x3fab1943	1.3367084
53	0x3f9659a6	1.1746109
54	0x3f95869a	1.1681702
55	0x3f8931c7	1.0718316
56	0x3f8b2b2c	1.087255
57	0x3fb2c2df	1.396572
58	0x3fa6d05d	1.3032337
59	0x3f8331c4	1.0249562
60	0x3f8ab57c	1.0836635
61	0x3f8b7aab	1.089681
62	0x3f85f4d8	1.0465345
63	0x3f9330af	1.1499232
64	0x3f84cced	1.0375038
65	0x3f8ad729	1.0846912
66	0x3f98c47f	1.1934966
67	0x3f9494b3	1.1607879
68	0x3f91d6d0	1.139368
69	0x3fb56fe5	1.4174773
70	0x3f89bfe2	1.0761683
71	0x3f98eecc	1.1947875
72	0x3f874318	1.056735
73	0x3f93d5fa	1.1549675
74	0x3f96d0c1	1.1782457
75	0x3f8a8af6	1.0823658
76	0x3fa6afde	1.302242
77	0x3f8f1d06	1.1180732
78	0x3f827ad7	1.0193738
79	0x3f8ab82c	1.0837455
80	0x3f8f5ab3	1.1199554
81	0x3f9769bf	1.1829146
82	0x3f95584f	1.1667575
83	0x3f9508b9	1.1643287
84	0x3f932fd8	1.1498976
85	0x3f916380	1.135849
86	0x3f94b733	1.1618408
87	0x3f8c50ea	1.0962193
88	0x3f961b9d	1.1727177
89	0x3f8c14b8	1.0943823
90	0x3f8eff59	1.1171676
91	0x3f91abb4	1.1380525
92	0x3f872569	1.0558292
93	0x3fbd2b82	1.4778903
94	0x3f8ee20f	1.1162738
95	0x3f9103b8	1.132926
96	0x3f9a8e14	1.2074609
97	0x3f89ee47	1.0775841
98	0x3fa14dc5	1.2601858
99	0x3f91006c	1.1328254
100	0x3f8e9a45	1.1140829
101	0x3f8fcbbd	1.1234051
102	0x3f96a621	1.1769449
103	0x3f90d5dd	1.1315266
104	0x3f90121b	1.1255525
105	0x3f8f039d	1.1172978
106	0x3f8af29e	1.0855291
107	0x3f938215	1.1524073
108	0x3f971370	1.1802807
109	0x3f8c9c03	1.0985111
110	0x3f880eab	1.0629476
111	0x3f92e566	1.1476257
112	0x3f8a5d88	1.0809793
113	0x3f9ea28a	1.2393353
114	0x3f93befb	1.1542658
115	0x3f9b1523	1.2115825
116	0x3f8f71d2	1.120661
117	0x3f8f301a	1.1186554
118	0x3f8f90d2	1.1216071
119	0x3f9b1216	1.2114894
120	0x3f87dd1f	1.0614356
121	0x3f8f4444	1.1192708
122	0x3f9019d3	1.1257881
123	0x3f95c07c	1.1699367
124	0x3f8a690f	1.0813311
125	0x3f86c7f8	1.0529776
126	0x3f91808b	1.1367353
127	0x3f8a6f33	1.0815185
128	0x3f90d727	1.1315659
129	0x3f9bb774	1.216536
130	0x3f8ba80e	1.0910661
131	0x3fa24e66	1.2680175
132	0x3f9a2b50	1.2044468
133	0x3f895423	1.0728801
134	0x3f8ebb55	1.1150919
135	0x3f8db03c	1.1069407
136	0x3f8b98f9	1.0906059
137	0x3f9ec1d1	1.2402898
138	0x3f9f399d	1.2439457
139	0x3f926d4c	1.1439605
140	0x3f903321	1.1265603
141	0x3f987dde	1.1913412
142	0x3f8da98c	1.1067367
143	0x3f8fe4d3	1.1241707
144	0x3fa609ee	1.297178
145	0x3f8b3f13	1.0878624
146	0x3f9895b6	1.1920688
147	0x3f962af6	1.1731861
148	0x3f8c93c6	1.0982597
149	0x3f95ac0e	1.1693132
150	0x3f8e2d2b	1.1107534
151	0x3fa3faec	1.281095
152	0x3f907d25	1.1288191
153	0x3fa771e8	1.3081636
154	0x3f9ece80	1.2406769
155	0x3f893ab7	1.0721043

bn1.bias f4 [156]
0	0xbd75adaf	-0.05998009
1	0xbdc5d7bb	-0.09660288
2	0xbe13eda6	-0.14446124
3	0xbd285426	-0.041095875
4	0x3d9a6fb9	0.07540841
5	0xbd7152f7	-0.058917012
6	0xbc9ae714	-0.018909015
7	0x3c125899	0.008932256
8	0xbca511b9	-0.020150052
9	0xbdc4a759	-0.096022315
10	0x3c8b3382	0.016992334
11	0xbdc79c36	-0.09746592
12	0xbcd92dc3	-0.026511079
13	0x3da15782	0.07878019
14	0x3cb8bc91	0.022550853
15	0xbbe9be7f	-0.0071333046
16	0xbdad7711	-0.08469976
17	0xbdbc01de	-0.09180044
18	0xbcd5afe4	-0.026084848
19	0x3da74587	0.08167558
20	0xbdd459a4	-0.1036866
21	0xbd9b29c1	-0.07576323
22	0xbd22ce22	-0.039747365
23	0x3cc69a29	0.024243431
24	0x3cd03653	0.025416529
25	0xbd4ae205	-0.049531955
26	0x3a1a51f1	0.0005886844
27	0x3d41c64b	0.047308248
28	0x3db9457a	0.09046455
29	0xbd5144fe	-0.051091187
30	0xbd79e8f6	-0.061013184
31	0x3c648cda	0.013949597
32	0xbd85c094	-0.06530872
33	0xbc452258	-0.012032114
34	0xbd31dc4e	-0.04342299
35	0xbdacecdd	-0.084436156
36	0x3d814006	0.063110396
37	0xbc47a6f0	-0.012185797
38	0xbd127e6f	-0.035765108
39	0xbd92a3b9	-0.07160134
40	0x3d1e58d4	0.03865893
41	0xbd92736d	-0.07150922
42	0x3d946383	0.07245543
43	0xbdfa0fbb	-0.122100316
44	0xbe1b3afc	-0.1515922
45	0x3e214989	0.15750708
46	0xbd7be949	-0.061501775
47	0x3e3f3dfa	0.18675986
48	0x3d83dd06	0.06438641
49	0xbde2fa1c	-0.11082861
50	0x3c9da427	0.019243313
51	0xba94cec3	-0.0011353124
52	0xbd693487	-0.05693486
53	0x3b8c5466	0.004282522
54	0xbdd7b310	-0.105322
55	0xbca64695	-0.020297328
56	0x3d12fa1c	0.035883054
57	0x3e2ac9b9	0.16678514
58	0x3d247459	0.04015002
59	0xbdc95eaf	-0.098325126
60	0xbc00cfee	-0.007862074
61	0x3d9d9c01	0.07695771
62	0x3cbd70a2	0.023124997
63	0xbde285a4	-0.11060646
64	0xbd21a02d	-0.039459396
65	0x3d6889bd	0.056771982
66	0xbe0a290b	-0.13492219
67	0x3ce397f5	0.02778242
68	0xbde62fbc	-0.11239573
69	0xbe175a9f	-0.14780663
70	0x3d83225c	0.06403038
71	0xbcfd17f5	-0.030895213
72	0xbdf16402	-0.11786653
73	0xbd4726dd	-0.048621047
74	0xbd15af20	-0.036543965
75	0xbbf5172a	-0.007479568
76	0x3e0e79d1	0.13913657
77	0xbd25a8e2	-0.040444262
78	0x3dc514b1	0.09623087
79	0x3d087564	0.033315077
80	0xbe253a3c	-0.16135496
81	0xbe586c84	-0.21135145
82	0xbcc671cd	-0.024224186
83	0x3d21bdea	0.039487757
84	0xbe0ce574	-0.13759404
85	0x3c7b32d3	0.015331942
86	0xbd60e861	-0.054909114
87	0xbd29b7ed	-0.04143517
88	0xbd8e1a34	-0.069385916
89	0x3c85c530	0.016329378
90	0x3d4c7759	0.049918506
91	0xbd9c1390	-0.07620919
92	0x3d18d822	0.037315495
93	0xbcb450d7	-0.022011204
94	0x3bf10823	0.0073557063
95	0xbd45f7c2	-0.048331983
96	0xbe219e34	-0.15783006
97	0xbce2824c	-0.027650021
98	0xbd995fd5	-0.07488982
99	0x3d3e2c67	0.046429064
100	0xbd9750be	-0.07388447
101	0x3db254e2	0.08707596
102	0x3ccceb8d	0.025014663
103	0xbe021a92	-0.12705448
104	0x3dd89db6	0.10576956
105	0xbd82f4fe	-0.06394385
106	0x3c8f4da7	0.017493082
107	0xbd5fa8bc	-0.054604277
108	0x3d69a8c7	0.057045724
109	0x3ce35855	0.027752081
110	0xbd7140f9	-0.058899853
111	0x3dbb150e	0.09134875
112	0xbc9cdf6a	-0.0191495
113	0x3db1923a	0.08670469
114	0x3d80747b	0.06272217
115	0xbe37d6d6	-0.17953047
116	0xbdf86c7a	-0.12130065
117	0x3d5ced0f	0.053937014
118	0x3e0de9cd	0.13858719
119	0xbc4380b3	-0.01193254
120	0x3d7c362f	0.06157511
121	0xbd645098	-0.055740923
122	0x3b674a1b	0.0035291973
123	0x3d8eba1c	0.06969091
124	0xbdbbace9	-0.09163839
125	0x3e398e6d	0.18120737
126	0xbd9d0059	-0.07666082
127	0xbc673882	-0.014112594
128	0x3d0f0c18	0.034923643
129	0xbd498bf4	-0.049205735
130	0x3cdd3f88	0.027007833
131	0xbde6b0ef	-0.11264216
132	0xbd4ddd85	-0.050260086
133	0x3da3b333	0.07993164
134	0xbdd46ac0	-0.103719234
135	0x3cb268f0	0.021778554
136	0x3c856cc9	0.016287224
137	0xbc73a361	-0.014870496
138	0xbdfdb591	-0.12388147
139	0x3c94dca5	0.018171618
140	0xbd7dffd9	-0.062011573
141	0x3e02e46e	0.12782452
142	0x3c3d428e	0.011551512
143	0xbd29e0e3	-0.041474234
144	0x3d20ab26	0.03922572
145	0xbcb5dc88	-0.022199884
146	0xbd6e4f37	-0.058181014
147	0xbd670d2e	-0.056409054
148	0xbc3e4caf	-0.0116149625
149	0xbdaee631	-0.08539999
150	0xbd320c92	-0.04346902
151	0xbcf1f618	-0.029536292
152	0x3d17d825	0.037071366
153	0x3ba03cae	0.004890046
154	0x3d625317	0.055255022
155	0xbdfabea0	-0.1224339

bn1.running_mean f4 [156]
0	0x3fb4e78a	1.413316
1	0x3f75cd84	0.96016717
2	0x3ec120bd	0.3772029
3	0x3f05e1af	0.5229749
4	0x3d427527	0.047475006
5	0x3f96af76	1.1772296
6	0x3f92e516	1.1476161
7	0x3ed54fc5	0.41662422
8	0x3ee71d97	0.45139763
9	0x00000004	6e-45
10	0x3f317315	0.69316226
11	0x3f445024	0.76684785
12	0x3ecfdc75	0.40597883
13	0x3fce4bab	1.6116842
14	0x3f9763eb	1.1827368
15	0x3f8cd083	1.1001133
16	0x3ed47184	0.41492856
17	0x3e3622b4	0.17786676
18	0x3f322c82	0.69599164
19	0x3d88e791	0.06684793
20	0x00000004	6e-45
21	0x3da7d720	0.08195329
22	0x3d247f64	0.04016055
23	0x3fa9edff	1.3275756
24	0x3f663a64	0.8993285
25	0x3d9832cf	0.07431566
26	0x3ebf1481	0.3732033
27	0x400fd275	2.2472203
28	0x3f515dd8	0.8178382
29	0x3fb7ef88	1.4369974
30	0x3fc49c10	1.5360126
31	0x3e73c489	0.23805441
32	0x400dc0ac	2.2148848
33	0x3dd94569	0.10608942
34	0x3f276b93	0.6539852
35	0x3f876553	1.0577797
36	0x3f0a0add	0.53922826
37	0x3ca81f68	0.020522788
38	0x3faab9aa	1.333791
39	0x3fd2af35	1.6459719
40	0x3f0c09dc	0.54702544
41	0x3fe83e5b	1.8144029
42	0x3f51ceea	0.8195635
43	0x3f574b32	0.84099114
44	0x00000004	6e-45
45	0x40119132	2.274487
46	0x3f944618	1.1583891
47	0x3f81af59	1.0131637
48	0x40115bd3	2.2712295
49	0x3ea03279	0.31288508
50	0x3ec0688f	0.37579772
51	0x3c4f309e	0.012645869
52	0x3fc8136c	1.5630927
53	0x3fd13da2	1.6346934
54	0x3fb8ae83	1.4428257
55	0x3f5be8d1	0.85902125
56	0x400fc348	2.246294
57	0x3fb7a5ca	1.434747
58	0x3cca4e9d	0.024695689
59	0x40050cc5	2.0789044
60	0x3fddfc76	1.734267
61	0x3fcc77f3	1.5974106
62	0x403790a4	2.8682032
63	0x3db6e410	0.08930218
64	0x3fba7275	1.456618
65	0x3fd07e57	1.6288556
66	0x3d73ef02	0.059554107
67	0x3fd54a22	1.6663249
68	0x40274930	2.613842
69	0x3e426494	0.1898368
70	0x3f9d65a4	1.2296643
71	0x3de9de5a	0.11419363
72	0x3fcb9eee	1.5907876
73	0x3fb9106a	1.4458134
74	0x3ef35d2e	0.47532028
75	0x3f3aa477	0.72907203
76	0x3f412bb1	0.7545729
77	0x3f2f2a00	0.6842346
78	0x3fec494a	1.8459866
79	0x3fed2f56	1.8530071
80	0x3e84cc6e	0.25937217
81	0x00000004	6e-45
82	0x3ec0acbf	0.37631795
83	0x3d70e6be	0.058813803
84	0x3ea4dc17	0.32199165
85	0x405b554b	3.4270809
86	0x3fcfd5d4	1.623713
87	0x3f451609	0.7698675
88	0x3f58ed97	0.84737533
89	0x3f7a821b	0.97854775
90	0x404a8847	3.1645677
91	0x3f0dca21	0.5538655
92	0x4012d4c9	2.2942374
93	0x3ed652b2	0.41859967
94	0x3f64c935	0.8936952
95	0x3eeedb3b	0.46651635
96	0x3e6501d4	0.22363979
97	0x4008875b	2.1332614
98	0x3f37a115	0.71730167
99	0x3d46095e	0.048348777
100	0x3cf8272a	0.030292112
101	0x3ed7dc25	0.42160144
102	0x3f4738ab	0.77820843
103	0x3d80a81b	0.062820636
104	0x3fa5607b	1.2920069
105	0x3fa68222	1.3008463
106	0x3ce925ba	0.028460372
107	0x3fa41958	1.2820234
108	0x3d3d5c56	0.046230637
109	0x4003f0bc	2.0615683
110	0x403d6f49	2.9599173
111	0x3ed7eb0a	0.42171508
112	0x3f92f72d	1.1481682
113	0x4006faa0	2.109047
114	0x3bb74383	0.005592765
115	0x3fa1d3f9	1.2642814
116	0x3eeddfb6	0.4645974
117	0x3f763ed7	0.96189636
118	0x3f3cf64b	0.73813313
119	0x3d84576c	0.06461987
120	0x3f84c620	1.0372963
121	0x3f975b76	1.1824787
122	0x3ed8186c	0.42206132
123	0x3f2068aa	0.62659705
124	0x3f291590	0.66048527
125	0x3f3b71cd	0.7322052
126	0x3d45b597	0.04826888
127	0x3f4618b2	0.7738143
128	0x4011b5b8	2.2767162
129	0x3ddf5e05	0.10906605
130	0x3add3132	0.0016875623
131	0x00000004	6e-45
132	0x3f2322a9	0.6372476
133	0x3d9321ad	0.071841575
134	0x3f586047	0.8452191
135	0x3fdfb867	1.747815
136	0x3f0f5a89	0.5599752
137	0x3f0f75af	0.56038946
138	0x3e8a2b2d	0.26986066
139	0x3df67bb5	0.12035314
140	0x3fb4f85a	1.4138291
141	0x3e3921d2	0.18079308
142	0x3d47d3e9	0.048786078
143	0x3f89aae0	1.0755272
144	0x3e9b9fd7	0.30395386
145	0x3e89cdd5	0.2691485
146	0x3d3cef89	0.046126876
147	0x3fa6dc51	1.3035985
148	0x3daa8911	0.083269246
149	0x3ed32d94	0.4124571
150	0x3f71d379	0.94463307
151	0x3ce47b46	0.027890813
152	0x3f9d4829	1.2287647
153	0x3cb92b9f	0.022603808
154	0x00000004	6e-45
155	0x3e3df2b5	0.18549617

bn1.running_var f4 [156]
0	0x40016ced	2.0222733
1	0x400c9e2c	2.197154
2	0x3ec36572	0.38163334
3	0x3f435f5a	0.7631737
4	0x3d6a9bd1	0.057277504
5	0x408cf19b	4.404493
6	0x4065999d	3.5875008
7	0x3ede18a5	0.43378177
8	0x3f240e05	0.6408389
9	0x00000004	6e-45
10	0x3ff18dd0	1.8871403
11	0x40318e5b	2.7743137
12	0x3ee25a63	0.44209585
13	0x3fe4eaf2	1.78842
14	0x406b6e24	3.6785975
15	0x406c90a8	3.696329
16	0x3f8ccdeb	1.1000341
17	0x3e8e10c8	0.27747178
18	0x40322317	2.7833917
19	0x3dc78047	0.09741264
20	0x00000004	6e-45
21	0x3de60f86	0.112334296
22	0x3d1d8a2d	0.038461853
23	0x400a56e7	2.161554
24	0x3fdfaf94	1.7475457
25	0x3dc87e03	0.0978966
26	0x3f623d36	0.8837465
27	0x41165cd5	9.397664
28	0x3fe0bd5e	1.755779
29	0x4026c719	2.605902
30	0x409edd6e	4.96453
31	0x3e9368a8	0.28790784
32	0x4112438b	9.14149
33	0x3dd15457	0.10221165
34	0x3f9262ab	1.1436361
35	0x406cc0b9	3.6992629
36	0x3fa248f9	1.267852
37	0x3cc3212d	0.02381953
38	0x3ff1c264	1.8887448
39	0x406ccb28	3.6998997
40	0x3f828031	1.0195371
41	0x4091a042	4.5508127
42	0x3fba071c	1.453342
43	0x3f898da0	1.0746346
44	0x00000004	6e-45
45	0x3fe4250a	1.7823803
46	0x400f75ac	2.2415571
47	0x4029d67d	2.6537163
48	0x409e887b	4.95416
49	0x3efc6bf0	0.493011
50	0x3f6ed1ae	0.93288696
51	0x3c7733c9	0.01508803
52	0x403fedb9	2.9988844
53	0x4048e6af	3.1390798
54	0x4094e65c	4.65312
55	0x40145d2f	2.3181875
56	0x4087c886	4.243228
57	0x3ef37df2	0.47557026
58	0x3c8e40df	0.017364917
59	0x4033c147	2.8086717
60	0x40efcecc	7.4939938
61	0x403b7941	2.9292758
62	0x4107c917	8.486594
63	0x3e2a94c1	0.16658308
64	0x4086629a	4.1995363
65	0x407668d5	3.8501484
66	0x3d8ca34b	0.06867083
67	0x409f268f	4.973457
68	0x4078cc5e	3.8874736
69	0x3db2c2f9	0.08728594
70	0x40a2139e	5.0648947
71	0x3dee5d9c	0.11638948
72	0x40a12f0a	5.036992
73	0x400407e2	2.0629811
74	0x3f3ac83f	0.729618
75	0x3fe32067	1.7744263
76	0x3f098226	0.53714216
77	0x4027eb1e	2.6237254
78	0x4060788a	3.5073571
79	0x409b04a4	4.8443165
80	0x3ec7b83d	0.3900775
81	0x00000004	6e-45
82	0x3f8a6a9e	1.0813787
83	0x3d6471a7	0.05577245
84	0x3f526264	0.8218138
85	0x3fe39f2d	1.7782952
86	0x40252acd	2.5807374
87	0x4048ec84	3.1394358
88	0x3fbb7891	1.4646169
89	0x40606c62	3.5066152
90	0x4111108c	9.06654
91	0x3fb3ccb1	1.4046842
92	0x410798af	8.474776
93	0x3ded855c	0.11597702
94	0x401d2462	2.4553456
95	0x3f7becfb	0.9840848
96	0x3ee044a9	0.43802384
97	0x40b45375	5.6351876
98	0x3f6b2c29	0.9186426
99	0x3d75f0da	0.060044147
100	0x3cee9043	0.029121524
101	0x3f8df25f	1.1089591
102	0x401f93b2	2.4933896
103	0x3da506ff	0.08057975
104	0x3fe27a8a	1.7693646
105	0x402a38b5	2.6597111
106	0x3cc8bdff	0.02450466
107	0x402e787e	2.7261043
108	0x3d19a843	0.037513983
109	0x403a009a	2.9062867
110	0x4097954f	4.736976
111	0x3f2c2439	0.6724277
112	0x40251e43	2.579972
113	0x3fe57e5b	1.7929186
114	0x3bc63a90	0.0060494617
115	0x40870a10	4.2199783
116	0x3f5657a6	0.8372749
117	0x3fd1d80f	1.6394061
118	0x3fa58520	1.2931252
119	0x3d8dfa9e	0.06932567
120	0x403f904d	2.9931824
121	0x40508093	3.2578475
122	0x3f5c0f87	0.8596119
123	0x3f92a771	1.1457349
124	0x3f837054	1.0268655
125	0x3fd50bb9	1.6644202
126	0x3d409e5a	0.047026016
127	0x3fdb5ee5	1.7138335
128	0x40cca22c	6.3947964
129	0x3e2a9afe	0.16660687
130	0x3a53dc13	0.0008081805
131	0x00000004	6e-45
132	0x400decbd	2.2175744
133	0x3db6a1eb	0.08917602
134	0x4055b7f0	3.3393517
135	0x40681648	3.62636
136	0x3f60a669	0.8775392
137	0x3f447809	0.7674566
138	0x3e72416c	0.23657769
139	0x3e0bf8ac	0.1366908
140	0x40cad702	6.338746
141	0x3e45bfb2	0.19311407
142	0x3d853fa4	0.06506279
143	0x401ff37e	2.4992366
144	0x3e508034	0.20361406
145	0x3f0c6525	0.54841834
146	0x3d0313a2	0.032001145
147	0x4086fea9	4.2185864
148	0x3ddcf65a	0.10789175
149	0x3f7b3b0c	0.98136973
150	0x40447791	3.0697978
151	0x3c9ea26f	0.019364564
152	0x4025c938	2.5904064
153	0x3c62d5de	0.013844935
154	0x00000004	6e-45
155	0x3e99935a	0.29995233

fc1.weight f4 [156, 24]
0	0xbcf2364a	-0.029566903
1	0xbe015d45	-0.12633236
2	0xbd586f4c	-0.052840516
3	0x3e387db2	0.18016699
4	0x3dae03b9	0.08496804
5	0x3e09ef28	0.13470137
6	0x3c1da977	0.009622923
7	0x3e24d7f6	0.16098008
8	0xbd243617	-0.040090647
9	0xbd29e489	-0.041477714
10	0xbc798154	-0.015228588
11	0xbdcb2e11	-0.09920896
12	0xbd002961	-0.031289462
13	0x3e06b796	0.1315597
14	0xba2dbecf	-0.0006627859
15	0xbda43e35	-0.080196775
16	0x3d41bbb6	0.047298156
17	0xbe172b1a	-0.14762536
18	0xbd8763ee	-0.06610857
19	0xbc0be286	-0.008537894
20	0xbc766d9b	-0.01504078
21	0xbc0aeb64	-0.008478973
22	0xb96b8570	-0.00022461056
23	0xbcde9a7d	-0.027173275
24	0xbd89c2b4	-0.0672659
25	0x3dac1f46	0.084044024
26	0x3c9de11b	0.019272378
27	0x3d4cb52e	0.049977474
28	0x3e55409c	0.20825428
29	0xbdd73edc	-0.10510036
30	0x3d049b35	0.03237458
31	0x3dc175fe	0.09446333
32	0xbbd3c038	-0.0064621232
33	0x3dbd5e21	0.09246469
34	0xbd670fe0	-0.056411624
35	0xbc353001	-0.011058808
36	0x3dbe6832	0.092972174
37	0x3d05cd85	0.0326667
38	0xbbc28df0	-0.0059373304
39	0x3c4b1e4c	0.01239736
40	0x3b9e1aed	0.004824987
41	0x3d1b31ba	0.03788922
42	0xbd29a04b	-0.041412633
43	0xbd7f0b30	-0.06226653
44	0x3d8796b5	0.06620542
45	0xbd0b7fac	-0.034057304
46	0xbcab32b4	-0.0208982
47	0xbe292dda	-0.16521397
48	0xbdc9cb56	-0.098532364
49	0xbbe42184	-0.006962003
50	0xbb9c74ed	-0.004774681
51	0x3d3f6133	0.046723556
52	0x3c8c1a9f	0.017102538
53	0x3d8b4b86	0.06801514
54	0x3c434565	0.0119184
55	0xbd3d1252	-0.04616005
56	0xbd88c436	-0.06678049
57	0x3d84c66d	0.06483159
58	0x3ced9b54	0.02900473
59	0xbca6016b	-0.020264348
60	0x3d94eb67	0.07271462
61	0xbe14c885	-0.14529617
62	0xbd134559	-0.035954807
63	0x3cf92acc	0.030415915
64	0xbce04aa7	-0.027379347
65	0x3d615c0e	0.05501943
66	0x3b2d29e7	0.002642268
67	0x3b35cd4c	0.0027740775
68	0x3c82be5d	0.015959913
69	0xbea300c3	-0.3183652
70	0xbc22ead4	-0.009943683
71	0x3b75bd83	0.003749699
72	0xbccdd676	-0.025126677
73	0x3eaf23da	0.3420704
74	0xbce308cf	-0.027714161
75	0xbbf327cb	-0.007420515
76	0x3db26bbc	0.08711955
77	0x3d577933	0.05260582
78	0xbc00c169	-0.007858613
79	0x3dd7f040	0.10543871
80	0x3cee7a8f	0.029111175
81	0x3e9bca97	0.30428
82	0xbdd86da4	-0.10567787
83	0x3d79acd1	0.060955826
84	0x3d35538e	0.044269137
85	0xbd2ef7e1	-0.042716864
86	0x3d48bb61	0.049006823
87	0x3d02a558	0.031895965
88	0xbcc1b586	-0.023646127
89	0x3e8aac96	0.27084798
90	0x3d1b674a	0.0379403
91	0xbdded68c	-0.10880765
92	0xbcc45efd	-0.023971075
93	0xbd4b486f	-0.049629625
94	0xbbaae698	-0.005215477
95	0xbd085046	-0.03327968
96	0x3dc36c43	0.09542134
97	0x3dcd2a78	0.10017866
98	0xbc21cfea	-0.009876231
99	0x3db754ff	0.089517586
100	0x3cd7f1e9	0.026360469
101	0xbd882e94	-0.06649509
102	0x3bf96d78	0.0076119266
103	0x3cc7b881	0.02437997
104	0xbd37ff4e	-0.044921212
105	0x3df4cf49	0.11953599
106	0x3d4e44cc	0.05035858
107	0x3de36d9e	0.11104892
108	0x3d573802	0.052543648
109	0xbd9db53a	-0.07700582
110	0xbd64d62b	-0.05586831
111	0x3dfd244f	0.12360441
112	0x3c2bcc7c	0.010485765
113	0x3d6c36c4	0.057669416
114	0x3cf39bd7	0.029737396
115	0xbe358735	-0.17727359
116	0xbd251b0a	-0.04030899
117	0xbda3d92f	-0.08000409
118	0xbcdd773b	-0.027034393
119	0xbe15ee93	-0.1464179
120	0x3c89f413	0.016840016
121	0x3df447d8	0.119277656
122	0xbdfe9fb4	-0.12432805
123	0xbd4b899c	-0.04969178
124	0x3d4c3e72	0.04986424
125	0x3da371b7	0.07980674
126	0xbd9b604f	-0.07586729
127	0xba9801a0	-0.0011597164
128	0x3cdd4e3a	0.02701484
129	0x3df0af9f	0.11752247
130	0x3d41a3db	0.047275405
131	0xbc652073	-0.013984787
132	0xbd2dba5d	-0.042414058
133	0xbd467d07	-0.04845908
134	0xbbd325ad	-0.0064437003
135	0x3d88e124	0.06683567
136	0x3c2b93c3	0.010472241
137	0xbb113522	-0.0022156914
138	0x3ad3c127	0.0016155586
139	0xbc2f16df	-0.010686605
140	0x3d82e4d2	0.063913
141	0xbe01b1d9	-0.126655
142	0x3cdd526e	0.027016845
143	0xbd67451b	-0.05646239
144	0xbce1f986	-0.027584802
145	0xbd10fee6	-0.03539934
146	0x3d125c06	0.03573229
147	0xbc896b20	-0.016774714
148	0xbd3a7910	-0.04552561
149	0x3d93efa1	0.0722344
150	0xbd039fe0	-0.03213489
151	0x3e01de7e	0.1268253
152	0xbd07ce47	-0.033155706
153	0xbdd850f3	-0.10562315
154	0xbc6ea1eb	-0.014564971
155	0xb9c92ee6	-0.0003837265
156	0xbdcca3b9	-0.09992165
157	0xbdad0a34	-0.08449212
158	0x3d1b24f8	0.037877053
159	0x3d9db251	0.07700027
160	0x3df27e95	0.1184055
161	0xbde567ca	-0.11201437
162	0xbd6e5992	-0.05819089
163	0xbd601b60	-0.054713607
164	0xbd93b9fe	-0.072132096
165	0xbd6fff30	-0.058592975
166	0xbde1f03d	-0.1103215
167	0xbd1d7f73	-0.038451623
168	0xbcd618fd	-0.026134962
169	0xbe1b8b19	-0.1518978
170	0x3d33ffa9	0.04394499
171	0x3d66d610	0.05635649
172	0xbd40acdf	-0.047039863
173	0xbe131dae	-0.1436679
174	0xbd20976b	-0.039206903
175	0xbd807e0c	-0.062740415
176	0xbccd12e9	-0.025033431
177	0xbd69ddf5	-0.05709644
178	0x3cc3859a	0.023867417
179	0xbc5bf551	-0.013425187
180	0x3d3addc7	0.04562166
181	0xbe1af696	-0.15133128
182	0xbce96376	-0.02848981
183	0xbc5cb6a6	-0.013471281
184	0xbd850399	-0.06494827
185	0xbe03daa9	-0.12876381
186	0xbd25ceaa	-0.040480293
187	0xbda2a511	-0.0794164
188	0x3e141c2e	0.14463875
189	0x3c95ea5c	0.018300228
190	0x3cb1ed11	0.021719487
191	0xbd10ce83	-0.035353195
192	0x3cf1583c	0.029461019
193	0x3d9d47de	0.07679723
194	0x3cd1191e	0.025524672
195	0x3cd459a4	0.02592165
196	0xbd067919	-0.03283033
197	0x3c8a9fcb	0.016921898
198	0xbd333f3b	-0.043761473
199	0xbd4da9b5	-0.050210673
200	0x3ccf54c5	0.025308976
201	0x3d767d77	0.060178246
202	0xbd2dafcc	-0.04240398
203	0x3d75ceac	0.06001155
204	0xbe3bcec7	-0.18340598
205	0xbdc007ec	-0.09376511
206	0x3d0f89df	0.035043593
207	0x3b646360	0.0034849271
208	0x3d174c83	0.0369382
209	0x3ca15f9c	0.01969891
210	0xbc5f3bd6	-0.013625106
211	0x3d3af099	0.045639608
212	0xbe4f3181	-0.20233728
213	0xbd914777	-0.07093709
214	0x3c86fb5b	0.016477278
215	0xbd00733a	-0.03135989
216	0x3e138361	0.14405586
217	0xbd4ea7c7	-0.050452974
218	0x3d873aa4	0.06602982
219	0x3d3ebf31	0.046569053
220	0x3ccb3e80	0.024810076
221	0x3cb133ac	0.021631084
222	0xbda0a504	-0.07843974
223	0xbb9d5a56	-0.0048020286
224	0x3dec1165	0.11526755
225	0xbd29f291	-0.041491095
226	0xbd04b31f	-0.032397386
227	0x3d533ab4	0.051569656
228	0xbc963430	-0.018335432
229	0xbda085b3	-0.07838001
230	0x3cda7099	0.026665019
231	0xbd8025ae	-0.06257187
232	0x3e41d75f	0.18929814
233	0xbe2e4019	-0.17016639
234	0x3ca8ce15	0.02060608
235	0x3bbdb4d2	0.0057893777
236	0xbd1e0c74	-0.038586095
237	0xbd1ebe86	-0.038755916
238	0xbc8005a9	-0.015627699
239	0xbd3fff4b	-0.046874326
240	0xbc62b9b6	-0.013838222
241	0xbd652ebd	-0.055952776
242	0x39fb4c08	0.00047931098
243	0x3e235e39	0.15953912
244	0x3e17de2d	0.14830847
245	0xbdd1e860	-0.102494
246	0x3ce0b4ad	0.027429903
247	0x3cae2340	0.021257043
248	0x3d3a3275	0.045458276
249	0xbb669956	-0.003518661
250	0x3c5b7104	0.013393644
251	0xbd1ebe44	-0.03875567
252	0x3c05b81a	0.008161569
253	0xbd13b0ab	-0.036057156
254	0xbd4b97fe	-0.049705498
255	0x3d5e9bcd	0.054347802

fc1.bias f4 [156]
0	0xbd6858d3	-0.056725334
1	0xbe2cde19	-0.16881599
2	0xbd8ee1e2	-0.069766775
3	0xbe162760	-0.14663458
4	0x391aafe1	0.00014752104
5	0xbd6c556b	-0.05769865
6	0xbd1c5518	-0.03816709
7	0xbbc50a89	-0.006013219
8	0xbe1d90d1	-0.15387274
9	0x3c30ede1	0.010798902
10	0xbda9155c	-0.08256027
11	0x3dd35f8c	0.103209585
12	0xbdaccb32	-0.08437194
13	0x3dacad89	0.08431537
14	0x3ce7e0ce	0.028305437
15	0x3c6a9195	0.014316936
16	0xbe136501	-0.14393999
17	0x3d6279f0	0.05529207
18	0xbcfc0079	-0.030761944
19	0xbcfe5c79	-0.031049954
20	0x3ca5e0e8	0.020248845
21	0xbe61f9e3	-0.2206798
22	0xbe1e23c5	-0.15443332
23	0x3c9aac2d	0.018880928
24	0xbe020158	-0.12695825
25	0xbe9cd92a	-0.30634433
26	0xbe1467ed	-0.1449277
27	0xbd105ec4	-0.035246626
28	0xbe83769b	-0.25676426
29	0xbe88d2d4	-0.2672335
30	0x3df566fd	0.11982534
31	0xbe11cb36	-0.14237675
32	0xbe897967	-0.26850435
33	0xbe6b59f2	-0.2298353
34	0xbd59eed4	-0.05320628
35	0xbe1a5777	-0.15072428
36	0xbe4922a9	-0.19642128
37	0xbacc918e	-0.0015607344
38	0xbe1763c0	-0.14784145
39	0x3e4eb78f	0.2018721
40	0xbdbf3466	-0.09336166
41	0xbdcf9998	-0.101367176
42	0x3d2da5c4	0.042394415
43	0xbe6405a6	-0.2226778
44	0x3bab6b67	0.005231309
45	0x3da9a38a	0.08283146
46	0x3e72ec17	0.23722874
47	0xbe7377d8	-0.23776186
48	0x3e367e72	0.17821673
49	0x3d2a0ee6	0.041518115
50	0xbe4e60a2	-0.2015405
51	0x3d86ee5c	0.06588432
52	0x3e453c4b	0.19261281
53	0x3de25af3	0.110525034
54	0xbe7b418f	-0.24536727
55	0x3deddcc9	0.11614377
56	0xbdaee45e	-0.08539651
57	0xbd9ab13b	-0.07553335
58	0xbe9321f6	-0.28736848
59	0xbdcd880a	-0.10035713
60	0xbe1a5cc3	-0.15074448
61	0x3d5c54c9	0.053791795
62	0xbcc1645d	-0.023607427
63	0xbd087a87	-0.033319976
64	0xbd205536	-0.039143763
65	0x3d55f232	0.05223293
66	0xbde4c240	-0.11169863
67	0xbdad7959	-0.08470411
68	0xbdca1760	-0.0986774
69	0xbe92c43b	-0.28665337
70	0x3e14027b	0.14454071
71	0xbc58d74e	-0.013234926
72	0xbe1065a1	-0.14101268
73	0xbe01982a	-0.12655702
74	0xbd256229	-0.040376816
75	0xbe9bfe6c	-0.30467546
76	0xbdc2e0a0	-0.095155
77	0x3d806578	0.06269354
78	0xbe3d1e07	-0.18468486
79	0x3d051217	0.032487955
80	0xbe3ebf86	-0.18627748
81	0xbe83c840	-0.25738716
82	0xbe7d15c1	-0.2471533
83	0x3c7c07d5	0.015382727
84	0xbe21f01a	-0.15814248
85	0x3d5217f2	0.051292367
86	0xbddb42e3	-0.10706117
87	0x3d115531	0.035481635
88	0xbeb230db	-0.348029
89	0x3dd24c8e	0.10268508
90	0xbe267590	-0.16255784
91	0xbe81e8c1	-0.2537289
92	0x3dbad446	0.09122519
93	0xbd7ef670	-0.06224674
94	0xbe91f6d7	-0.28508636
95	0xbd661f75	-0.056182344
96	0xbeabc8c8	-0.3355162
97	0xbe40fba7	-0.18845998
98	0xbdbe6866	-0.09297256
99	0x3abb109e	0.001427192
100	0xbd2ae313	-0.04172046
101	0xbdb4b73d	-0.088240124
102	0xbddb2f56	-0.10702388
103	0xbc50b6ab	-0.012738864
104	0x3d1fdec1	0.039030794
105	0xbcc8a4b6	-0.024492603
106	0xbb0e18fb	-0.002168237
107	0xbdff9438	-0.12479442
108	0xbc4d6999	-0.0125373835
109	0x3dc8acaa	0.09798558
110	0x3cea2525	0.028582165
111	0xbdaa7a68	-0.083241284
112	0xbd5fb5ef	-0.054616865
113	0xbe6709a5	-0.22562273
114	0x3dbb1119	0.091341205
115	0x3c2aca5b	0.010424222
116	0x3c3a8fa6	0.0113867875
117	0xbe0e830b	-0.13917176
118	0xbe37cc65	-0.17949064
119	0x3c70bc53	0.0146933375
120	0xbcf1805b	-0.02948015
121	0x3d9befc6	0.076140925
122	0x3dccbc8a	0.099968985
123	0xbe0c3d0f	-0.13695167
124	0x3e34552d	0.17610617
125	0xbdd7eda3	-0.105433725
126	0x3e0c4c87	0.13701068
127	0x3db5858d	0.088633634
128	0x3e389b1a	0.18027917
129	0x3d976150	0.07391608
130	0xbe9e326f	-0.30897853
131	0xbccb2594	-0.024798192
132	0x3d4bd102	0.049759872
133	0xbe01e4cf	-0.1268494
134	0xbdb6fca2	-0.08934905
135	0xbe2c3a8f	-0.16819213
136	0xbdb0b64f	-0.086285226
137	0xbe40779c	-0.18795627
138	0x3e071405	0.1319123
139	0xbe4c3ee0	-0.1994586
140	0xbe503807	-0.20333873
141	0xbcf85b65	-0.030317018
142	0x3c07e437	0.008294157
143	0xbdc4cd13	-0.09609427
144	0x3df09720	0.11747575
145	0x3d9934fb	0.07480808
146	0xbdc01a06	-0.093799636
147	0xbce1f6ed	-0.027583564
148	0xbd812627	-0.06306105
149	0xbdf8c077	-0.12146085
150	0xbe05c6d9	-0.13064136
151	0x3c9ac272	0.018891547
152	0xbde9d7ba	-0.114181
153	0xbdb7b674	-0.08970347
154	0xbdefc48c	-0.1170741
155	0xbdc982d6	-0.09839408

fc2.weight f4 [156, 156]
0	0xbd536982	-0.051614292
1	0x3dd06644	0.101757556
2	0x3e3ce177	0.18445383
3	0xbcfc48cc	-0.030796431
4	0xbd8e21e9	-0.069400616
5	0xbd8380cd	-0.06421051
6	0xbd2ba1a5	-0.041902203
7	0x3db2a6bb	0.087232076
8	0xbe600f24	-0.21880776
9	0x3daeaba5	0.08528832
10	0xbe350a44	-0.17679697
11	0xbc7a7d97	-0.015288732
12	0x3dde6617	0.10859316
13	0xbdbce0ae	-0.09222542
14	0xbd97feea	-0.07421668
15	0x3cfa0f1d	0.030524785
16	0x3cfc7974	0.030819632
17	0xbd2bc71f	-0.041937944
18	0x3d480a28	0.04883781
19	0xbd72e812	-0.05930335
20	0x3e5e4719	0.21706809
21	0x3e24c372	0.16090181
22	0x3d856bae	0.06514679
23	0x3c758a0c	0.014986526
24	0x3c827b60	0.01592797
25	0x3dad73c8	0.08469349
26	0xbd2cba3c	-0.042169794
27	0xbd657081	-0.056015495
28	0xbcaf3c18	-0.02139096
29	0x3bee8e73	0.007280165
30	0xbd883941	-0.06651545
31	0xbd9d43c9	-0.076789446
32	0xbd863278	-0.06552595
33	0x3c5b57bf	0.0133876195
34	0xbd9e2b85	-0.077231444
35	0xbdc6e375	-0.09711353
36	0x3d0fbcad	0.035092045
37	0xbdc7e541	-0.097605236
38	0x3ca7983e	0.020458337
39	0xbd6465d9	-0.055761192
40	0x3e2e8cfa	0.17045966
41	0x3c9c584d	0.019085074
42	0x3d3e2e2e	0.04643076
43	0xbe282f15	-0.1642421
44	0x3d889477	0.066689424
45	0xbe759e52	-0.23986176
46	0x3e472aee	0.1944997
47	0x3e46718b	0.1937925
48	0xbe899c5e	-0.2687711
49	0x3e15baba	0.14622012
50	0xbe54f259	-0.20795573
51	0xbe6661f8	-0.2249831
52	0x3cda6c93	0.0266631
53	0xbe5fa30e	-0.21839544
54	0xbc5b02b5	-0.013367345
55	0xbd643492	-0.055714197
56	0x3dcbc7bb	0.09950205
57	0x3bf6aabf	0.0075276787
58	0xbdf977a4	-0.12181023
59	0x3c51dcd2	0.012808995
60	0xbd5dd5f5	-0.054159123
61	0xbbbc5075	-0.005746896
62	0x3d816952	0.063189164
63	0x3df6d380	0.12052059
64	0xbde78973	-0.11305513
65	0xbd56198c	-0.052270457
66	0xbd07d455	-0.03316148
67	0xbd0dfe40	-0.0346663
68	0x3e0355a9	0.12825646
69	0xbe308eff	-0.17242049
70	0xbe0a895b	-0.1352896
71	0xbe571867	-0.21005403
72	0xbd43e94e	-0.04782992
73	0xbdf039a0	-0.11729741
74	0xbd8b175b	-0.06791564
75	0x3c3fdeb9	0.011710816
76	0xbe8f1323	-0.27944288
77	0xbd20a3ad	-0.039218593
78	0x3c82ca96	0.015965741
79	0xbe58cbbc	-0.21171468
80	0xbde04be2	-0.109519735
81	0x3d9ee4a0	0.077584505
82	0xbda5749d	-0.08078883
83	0x3c28340b	0.010266314
84	0xbe215ed9	-0.15758838
85	0x3ca9cc70	0.020727366
86	0x3d69eabb	0.057108622
87	0x3daa160e	0.08304988
88	0xbc960f7d	-0.018317932
89	0x3c4734b1	0.012158559
90	0xbd3498e7	-0.04409113
91	0x3d12edff	0.035871502
92	0x3db5ca80	0.088765144
93	0x3db24596	0.08704679
94	0xbe07f774	-0.1327799
95	0x3da25e9e	0.07928203
96	0x3e36b6ab	0.1784312
97	0xbb298ab2	-0.0025870022
98	0xbdc72566	-0.0972393
99	0x3e015c64	0.126329
100	0x3e3147f8	0.1731261
101	0xbe1f1ab3	-0.15537529
102	0x3cf05bec	0.029340707
103	0x3d6e1871	0.058128778
104	0x3c8bf014	0.017082252
105	0x3df68ae1	0.12038208
106	0xbd95747d	-0.07297609
107	0x3d8fa7af	0.07014405
108	0xbdf777c6	-0.12083392
109	0xbe0a7c5b	-0.13524
110	0xbcd2e1ba	-0.0257424
111	0xbd368227	-0.044557717
112	0xbb13c6de	-0.0022548954
113	0xbd893f86	-0.06701569
114	0xbd4d882b	-0.050178688
115	0xbdd0c029	-0.10192902
116	0x3ddcd6b4	0.10783139
117	0xbe1bb111	-0.15204264
118	0xbdc3eef4	-0.09567061
119	0x3e6fe2ae	0.23426315
120	0xbd0387f8	-0.03211209
121	0x3db789cc	0.089618295
122	0x3e2ffaa6	0.17185459
123	0xbd927711	-0.07151616
124	0x3dcdfa6b	0.10057529
125	0x3c9f8446	0.019472253
126	0xbdf917d4	-0.12162748
127	0x3d115b98	0.03548774
128	0xbdb42c4b	-0.08797511
129	0xbcbffbd8	-0.023435518
130	0xbba9688c	-0.0051699337
131	0xbdc551e5	-0.09634761
132	0xbe27a17c	-0.16370195
133	0xbe19e5bc	-0.15029043
134	0x3dde8588	0.10865313
135	0x3d2671bc	0.04063581
136	0xbe5b5fa6	-0.21423206
137	0xbe8e1300	-0.2774887
138	0xbd5888a1	-0.052864674
139	0xbdaf0acc	-0.08546981
140	0x3db48c62	0.088158384
141	0xbdafbd42	-0.0858102
142	0xbe5b52ee	-0.21418354
143	0xbd0b27c3	-0.033973467
144	0xbe127eb6	-0.14306149
145	0xbdc18d71	-0.09450806
146	0x3d8fee7f	0.070279114
147	0xbd874763	-0.06605413
148	0x3dd24305	0.10266689
149	0x3ded69b4	0.11592427
150	0x3d702bfa	0.05863569
151	0x3e2488c0	0.16067791
152	0xbcc06b5e	-0.023488697
153	0x3da505f3	0.08057775
154	0xbd359c82	-0.04433871
155	0xbbfae137	-0.007656242
156	0x3ca7a218	0.020463035
157	0xbc0a3e50	-0.008437708
158	0x3ca8a635	0.020587066
159	0x3d360e0a	0.044446982
160	0xbd6e4666	-0.058172606
161	0x3d5f1569	0.054463778
162	0x3c35b088	0.011089452
163	0xbdb294b7	-0.08719771
164	0xbdfd0f67	-0.123564534
165	0x3da1ea54	0.07906023
166	0x3d4c66e2	0.049902804
167	0xbe252c71	-0.16130234
168	0xbdc5874d	-0.09644947
169	0x3c2eedfd	0.010676858
170	0xbce825b9	-0.0283383
171	0xbcb0d552	-0.021586094
172	0xbc9169fa	-0.017750729
173	0xbb148833	-0.002266419
174	0x3d8d33b0	0.06894624
175	0xbe45d6fb	-0.1932029
176	0xbdd7c91b	-0.10536405
177	0x3dde7b01	0.10863305
178	0x3d18c1c8	0.03729418
179	0x3cbf5069	0.023353772
180	0xbd605319	-0.054766748
181	0x3e0fa58d	0.14027996
182	0xbd998a5a	-0.074970916
183	0xbd46cfbb	-0.04853795
184	0x3c3e2ece	0.011607839
185	0x3d8763e9	0.06610853
186	0xbc6e0048	-0.014526434
187	0xbddf4ceb	-0.10903343
188	0x3db9bbf8	0.09069055
189	0x3e0dc065	0.13842924
190	0x3e04427d	0.12915988
191	0x3d59b22a	0.053148426
192	0x3c5e4b73	0.013567793
193	0xbe879579	-0.26481226
194	0xbd127c10	-0.035762846
195	0x3c8429bf	0.016133187
196	0xbe030c24	-0.127976
197	0x3cbd405e	0.023101982
198	0x3c1bff6f	0.009521349
199	0x3d2bef0e	0.041976027
200	0xbde7f78b	-0.11326512
201	0x3bfda931	0.0077411165
202	0x3def6aed	0.11690316
203	0x3d96b3b2	0.07358493
204	0x3d3c0a5e	0.045908324
205	0x3def0e53	0.11672654
206	0xbdb4a7c7	-0.088210635
207	0xbdc9c0de	-0.098512396
208	0x3e1647e4	0.14675862
209	0x3d4175f7	0.04723164
210	0xbde33708	-0.11094481
211	0x3d9c5d12	0.07634939
212	0xbdda78ea	-0.10667594
213	0xbe0a45e7	-0.13503228
214	0xbca40bc8	-0.020025149
215	0xbc62d33c	-0.0138443075
216	0x3dc80a8d	0.097676374
217	0xbd7c4baf	-0.061595615
218	0x3c53c3f7	0.01292514
219	0xbc89d65f	-0.016825853
220	0x3dfb2b61	0.12264133
221	0x3d6cdd91	0.05782849
222	0xbd2217bd	-0.03957342
223	0x3dd9aad3	0.10628285
224	0xbd0cee95	-0.034407217
225	0x3e34f80d	0.17672749
226	0xbdb967f6	-0.09053032
227	0x3e9a909a	0.30188447
228	0xbd985464	-0.07437971
229	0x3d8d7be7	0.06908398
230	0xbbf451f6	-0.0074560596
231	0xbd84ae41	-0.06478549
232	0xbdbc2565	-0.0918682
233	0x3e42bc2c	0.19017094
234	0xbc6fded1	-0.014640526
235	0xbab78c31	-0.0014003572
236	0xbe6dc2f7	-0.23218904
237	0x3bad68b5	0.005292023
238	0xbd214b5b	-0.039378505
239	0x3e156c2d	0.14592047
240	0xbdae5918	-0.08513087
241	0xbd3642e3	-0.044497382
242	0x3cd3947f	0.025827644
243	0xbd7fb43c	-0.062427744
244	0x3dc4d697	0.09611242
245	0xbca70369	-0.020387368
246	0xbc82ec05	-0.015981684
247	0x3d3bdd91	0.0458656
248	0x3d600bbc	0.05469869
249	0xbd5d2856	-0.053993545
250	0x3e11d306	0.14240655
251	0x3d856da1	0.06515051
252	0xbd26bb0d	-0.04070573
253	0x3c696b5d	0.014246789
254	0xbe4a003c	-0.19726652
255	0x3dc3b5f1	0.09556187

fc2.bias f4 [156]
0	0x3dd49168	0.103792965
1	0x3d4f741f	0.05064785
2	0xbd3982fa	-0.045290925
3	0xbcb47120	-0.022026598
4	0x3de8571e	0.11344741
5	0x3d0c2d11	0.034222666
6	0xbb805534	-0.003916407
7	0x3dc31f07	0.09527402
8	0x3d33b5ef	0.043874677
9	0x3e206ac9	0.15665735
10	0x3c94ad51	0.01814905
11	0x3d5bb3b1	0.053638164
12	0xbbbb3a87	-0.005713764
13	0xbd1319ec	-0.035913393
14	0xbcb8f77e	-0.022578951
15	0x3d53b7b1	0.051688854
16	0xbc0b777e	-0.008512376
17	0xbdf67e1c	-0.12035772
18	0xbe12ae3b	-0.14324276
19	0x3d24e969	0.04026166
20	0x3c24f522	0.01006821
21	0xbdbfdcc9	-0.09368283
22	0x3dd7159c	0.105021685
23	0x3e1a9cd7	0.15098892
24	0x3e27fed4	0.16405803
25	0x3d5e12e5	0.054217238
26	0x3dd3ea3d	0.10347412
27	0x3e085d6c	0.13316888
28	0xbca7606c	-0.02043172
29	0xbd3bb4b0	-0.045826614
30	0x3c356cbf	0.01107329
31	0x3dc043f5	0.09387962
32	0xbd619d03	-0.05508138
33	0xbdc11fe7	-0.09429913
34	0x3d1ae1c5	0.037812967
35	0x3d2d47e9	0.042304907
36	0x3e0fe604	0.14052588
37	0x3d444a16	0.047922216
38	0x3c8b7538	0.017023668
39	0xbcad4bcc	-0.021154307
40	0xbcb5fe2f	-0.02221593
41	0x3cf9bc30	0.030485243
42	0x3db4114f	0.08792364
43	0x3ca1a6c5	0.019732842
44	0xbc4d8bae	-0.012545509
45	0xbd9385e0	-0.07203269
46	0xbc05525e	-0.008137314
47	0x3ddfc891	0.10926927
48	0x39f1b265	0.00046100016
49	0xbb740ca8	-0.003723899
50	0xbd919422	-0.07108332
51	0x3e3bf905	0.18356712
52	0x3d858371	0.06519211
53	0xbcd3d85a	-0.02586
54	0x3cd6b6a8	0.026210144
55	0xbd90cbe4	-0.07070139
56	0xbd0f4b7f	-0.034984108
57	0xbdabcca1	-0.08388639
58	0x3d94a665	0.072583
59	0x3cc62f5a	0.0241925
60	0x3b054ba2	0.002033927
61	0x3d0f35d7	0.034963455
62	0xbd0c6929	-0.034279976
63	0x3d4cc3c4	0.049991384
64	0x3c44f69d	0.012021688
65	0x3cbd89e1	0.023137035
66	0x3c976aaf	0.018483488
67	0xbcda7911	-0.026669057
68	0x3da9701a	0.08273335
69	0x3cdf6d68	0.027273849
70	0xbc99b5dc	-0.018763475
71	0x3d8a1821	0.067428835
72	0x3c8e865d	0.017398054
73	0x3d27c9c3	0.0409639
74	0x3da6c819	0.08143634
75	0xbd9fc464	-0.078011304
76	0x3d80e0bd	0.062928654
77	0xbd6b1b88	-0.057399303
78	0x3dc757d4	0.09733549
79	0x3db2b1f1	0.08725346
80	0x3db94445	0.090462245
81	0x3c4b03a8	0.012391008
82	0xbd0ccff2	-0.034378
83	0x3e161fdf	0.14660595
84	0x3bbb4ebd	0.0057161734
85	0x3d8d72cf	0.069066636
86	0x3c0a0735	0.00842457
87	0x3cf63187	0.030052913
88	0x3d9697f4	0.073532015
89	0xbc841d9d	-0.016127402
90	0xbc217619	-0.009854817
91	0x3db20d64	0.0869396
92	0xbc08550e	-0.00832106
93	0xbd00f60a	-0.03148464
94	0x3d55b34f	0.052172955
95	0x3da9beb9	0.082883306
96	0xbd51f5d1	-0.05125982
97	0x3df53e81	0.11974812
98	0x3d4a48e6	0.049385928
99	0x3d6f9525	0.058491845
100	0xbd8af75e	-0.06785463
101	0x3daad6da	0.08341761
102	0x3e24fbbe	0.16111657
103	0x3e1a9b38	0.15098274
104	0xbbec52cc	-0.0072120186
105	0xbccd3b15	-0.025052587
106	0x3d168300	0.036746025
107	0x3d4d8085	0.050171394
108	0xbdf96789	-0.12177951
109	0x3dbd5777	0.09245198
110	0x3d4c9eab	0.049956005
111	0xbdc083bc	-0.09400126
112	0x3e012d8c	0.12615031
113	0xbd045195	-0.032304365
114	0x3d70ad19	0.05875883
115	0x3cad9ed3	0.021193897
116	0x3d65f6be	0.056143515
117	0x3deaa5a4	0.11457375
118	0xbd37925a	-0.044817306
119	0x3d9d3596	0.07676236
120	0x3e2d08ee	0.16897938
121	0x3b2ad7fd	0.002606868
122	0xbd489d34	-0.048978046
123	0xbd32af75	-0.04362436
124	0xbcb3abd4	-0.02193252
125	0xbdc27700	-0.09495354
126	0x3d16d601	0.036825184
127	0xbda72a82	-0.081624046
128	0x3dd7c803	0.10536196
129	0x3db74fb8	0.08950752
130	0xbc3ae5e7	-0.011407352
131	0x3dae1a9b	0.08501168
132	0x3e20e602	0.15712741
133	0x3d8ab824	0.06773403
134	0x3ddd5565	0.10807303
135	0xbd983838	-0.07432598
136	0x3dfa1acd	0.12212143
137	0xba15c460	-0.0005713161
138	0xbd35629f	-0.044283506
139	0x3e151387	0.1455823
140	0xbcd966fb	-0.026538363
141	0xbd20dbc1	-0.039272074
142	0xbcb50449	-0.02209677
143	0x3db59c7f	0.0886774
144	0xbd71138f	-0.058856543
145	0xbd6f838c	-0.058475062
146	0xbd77aa22	-0.060464986
147	0x3e062c85	0.1310292
148	0x3d26ceab	0.040724438
149	0x3da42736	0.080152914
150	0xbd800db7	-0.06252616
151	0x3d2232ec	0.039599344
152	0xbcdd718b	-0.02703168
153	0x3c3df70c	0.011594545
154	0x3d489b3a	0.04897616
155	0x3d9c4476	0.076302454

fc3.weight f4 [2, 156]
0	0x3d8a8e1e	0.06765388
1	0x3d982ad6	0.07430045
2	0x3e1caef0	0.15301108
3	0x3e2f35f1	0.17110421
4	0x3e07e8d3	0.13272409
5	0xbd83b055	-0.06430117
6	0x3e1baf05	0.15203483
7	0xbdc66105	-0.09686474
8	0x3db8261e	0.08991645
9	0xbd4682b2	-0.048464485
10	0x3e0f44f2	0.13991144
11	0xbd714de9	-0.05891219
12	0x3d9e39b1	0.077258475
13	0x3e41bbb7	0.18919264
14	0x3e20c204	0.15699011
15	0x3d67f84d	0.056633282
16	0x3e17a890	0.14810395
17	0xbe91b3bb	-0.28457436
18	0x3d887dea	0.06664641
19	0xbde50479	-0.11182494
20	0xbdd8d506	-0.10587506
21	0x3d75a09c	0.059967622
22	0xbde012b4	-0.10941067
23	0xbddd9f26	-0.10821371
24	0xbd60841c	-0.05481349
25	0xbdc811a7	-0.09768992
26	0xbdd485e3	-0.10377099
27	0xbd1da35f	-0.03848588
28	0xbd27881c	-0.04090129
29	0x3d03a526	0.03213992
30	0xbd85fc19	-0.065422244
31	0xbcd1fcea	-0.025633294
32	0x3c5f7528	0.013638772
33	0x3cd7746d	0.026300633
34	0x3dbc1b72	0.09184922
35	0xbd23d3a3	-0.039996754
36	0xbe103b32	-0.14085081
37	0xbe2499b7	-0.16074263
38	0x3e625d25	0.22105844
39	0xbdee95f3	-0.11649694
40	0x3da41ba0	0.080130816
41	0xbd04f18a	-0.032456912
42	0x3e3b385b	0.18283217
43	0xbd911667	-0.07084351
44	0x3eccfb3d	0.4003543
45	0x3e39448a	0.18092552
46	0x3e064152	0.13110855
47	0xbe4dc5d2	-0.20094994
48	0x3e10dc59	0.14146556
49	0xbd7a23f4	-0.061069444
50	0xbda9f5f2	-0.082988635
51	0xbdc7f571	-0.09763611
52	0xbdc4768f	-0.09592926
53	0x3e310173	0.17285709
54	0xbdd1f98f	-0.10252678
55	0x3e04359d	0.12911077
56	0xbe6f70d8	-0.2338289
57	0x3e40e6b4	0.18838006
58	0xbdd21501	-0.102579124
59	0xbdb29c54	-0.087212235
60	0x3dc7c3e4	0.0975416
61	0xbd9e7437	-0.0773701
62	0x3e9ab663	0.30217275
63	0x3e5407d1	0.20706107
64	0xbd1f6246	-0.03891208
65	0xbe42f016	-0.19036898
66	0xbd8f2228	-0.06988937
67	0x3e0b324d	0.13593407
68	0xbe43711c	-0.19086117
69	0xbd936ed7	-0.071988754
70	0xbd87306e	-0.06601034
71	0xbdb6eec1	-0.089322574
72	0x3dc2bd31	0.09508742
73	0xbd8e1d39	-0.069391675
74	0xbe044074	-0.12915212
75	0x3e6c72de	0.23090693
76	0x3e19c00e	0.1501467
77	0xbe57e631	-0.21083905
78	0xbd0d5f01	-0.03451443
79	0x3e1d9491	0.15388705
80	0xbdfd267f	-0.12360858
81	0x3dec52f2	0.11539258
82	0x3dadac8b	0.084801756
83	0xbdb6ef71	-0.089323886
84	0x3ec020be	0.3752498
85	0xbd3867a7	-0.045020726
86	0xbe999b7b	-0.30001435
87	0x3e7da398	0.24769437
88	0x3cd37d79	0.025816666
89	0x3e2cacb4	0.16862756
90	0xbbad0da2	-0.005281166
91	0x3e1a615c	0.15076202
92	0x3d7ecb1f	0.06220543
93	0x3e33eafb	0.17570107
94	0x3e163e6e	0.14672253
95	0xbded7622	-0.11594798
96	0xbcbf001d	-0.023315484
97	0xbe075e6c	-0.13219613
98	0xbda5c3eb	-0.08094009
99	0x3dcd51b5	0.1002535
100	0xbdf04f32	-0.11733855
101	0xbdc37281	-0.09543324
102	0xbe16e908	-0.14737332
103	0xbe39c04d	-0.18139763
104	0xbdf73d01	-0.120721824
105	0xbe458e9c	-0.19292682
106	0xbe0aec46	-0.13566694
107	0x3d43a77f	0.04776716
108	0x3e11cfeb	0.1423947
109	0xbdef36cd	-0.11680374
110	0x3dc427f9	0.09577937
111	0x3e086990	0.13321519
112	0x3e3db3f0	0.18525672
113	0xbd03586f	-0.03206676
114	0xbdf87b02	-0.12132837
115	0x3dd7c1f7	0.10535043
116	0xbe19d05a	-0.15020886
117	0x3e4e43ee	0.201431
118	0x3e93fbfd	0.2890319
119	0x3de2156c	0.11039242
120	0x3df2ee59	0.118618675
121	0xbe93baa5	-0.28853336
122	0x3d9500fe	0.0727558
123	0x3dd0a712	0.10188116
124	0x3e128e86	0.14312181
125	0xbdc3becf	-0.09557878
126	0x3de2f017	0.1108095
127	0xbe1bfcfb	-0.15233223
128	0xbd3b1d10	-0.045682013
129	0xbd61a643	-0.0550902
130	0x3e641879	0.2227496
131	0x3d95c42c	0.073128074
132	0xbd6e2968	-0.058144957
133	0x3e028991	0.1274779
134	0x3df728fc	0.12068364
135	0x3de71cda	0.112848
136	0x3e240724	0.16018349
137	0x3e1a5a57	0.15073524
138	0xbd9183d1	-0.0710522
139	0x3e20d612	0.15706661
140	0x3de91d1d	0.11382506
141	0x3e34cf9f	0.17657326
142	0xbc09c349	-0.008408376
143	0x3e12e33b	0.14344494
144	0xbe0726c9	-0.13198389
145	0x3d99e0b4	0.07513562
146	0x3d855210	0.06509793
147	0xbdc05e46	-0.09392981
148	0x3e18423b	0.14869015
149	0x3e30992d	0.17245932
150	0xbcd9b9de	-0.026577886
151	0xbd6b1677	-0.05739447
152	0x3e1c364a	0.15255085
153	0x3decd85e	0.11564706
154	0xbe27b489	-0.16377462
155	0xbe32726c	-0.17426461
156	0xbebedb70	-0.37276793
157	0x3e93a27f	0.28834912
158	0xbd6cdbe0	-0.057826877
159	0xbe23bfc2	-0.15991119
160	0x3df00e7d	0.117215134
161	0xbd8e614e	-0.06952153
162	0xbe0d8576	-0.13820443
163	0x3e3e5d12	0.18590191
164	0x3e9090c2	0.2823544
165	0xbdd62339	-0.10455937
166	0x3d6d1fdf	0.057891723
167	0x3e1c9952	0.15292862
168	0x3e4c7527	0.19966565
169	0x3c5add8e	0.013358487
170	0xbe99929f	-0.29994676
171	0x3e8d07ff	0.27545163
172	0xbd8dfdd7	-0.06933182
173	0xbe2cfa76	-0.16892418
174	0xbebcdf54	-0.36889136
175	0x3d3686f5	0.0445623
176	0x3edaffa8	0.42773175
177	0x3e98e09b	0.2985886
178	0xbde038bf	-0.109483235
179	0xbd7e8532	-0.062138744
180	0x3e99228a	0.29909164
181	0x3ea59c59	0.32345846
182	0x3bcae692	0.006192037
183	0x3ebcfbee	0.36910957
184	0x3e8651ab	0.26234183
185	0x3e9525ce	0.29130405
186	0x3ebea871	0.37237886
187	0xbe7bab72	-0.2457712
188	0x3e8b0ef0	0.27159834
189	0x3e9eb5d0	0.30998087
190	0x3e6ee95e	0.2333121
191	0xbe5f190f	-0.21786903
192	0xbe0e7a98	-0.13913953
193	0x3df4a9be	0.11946438
194	0xbdf81e3a	-0.1211514
195	0x3ea144bd	0.31497756
196	0xbe931220	-0.28724766
197	0xbe62712b	-0.22113483
198	0xbbf4c964	-0.0074702967
199	0xbe24994d	-0.16074105
200	0xbe252237	-0.16126333
201	0xbe4a5057	-0.1975721
202	0xbe60b3ef	-0.21943639
203	0xbdcdf3a0	-0.100562334
204	0x3d2ca642	0.042150743
205	0x3e47d471	0.19514634
206	0x3e6adc4b	0.22935598
207	0xbd0781ad	-0.033082653
208	0xbdc0c301	-0.09412194
209	0xbcc8e246	-0.024521958
210	0x3ec8b4cb	0.39200434
211	0x3da04c46	0.07827048
212	0x3e66b1c1	0.22528745
213	0xbea4c65a	-0.3218258
214	0x3e981cf2	0.29709584
215	0x3e15a253	0.14612703
216	0x3e99018c	0.29883993
217	0xbe4f1b49	-0.20225252
218	0xbe26c95f	-0.16287754
219	0xbdf8288b	-0.12117108
220	0xbd719ee4	-0.05898942
221	0x3de37130	0.11105573
222	0xbde110f8	-0.10989565
223	0x3c98bb7c	0.018644087
224	0x3e0858f2	0.1331518
225	0x3e53b21c	0.20673412
226	0xbe5ce751	-0.21572615
227	0xbd60c381	-0.054873947
228	0xbe04a367	-0.12952958
229	0xbe90fd90	-0.28318453
230	0xbda46176	-0.08026402
231	0xbdd0dd83	-0.101985
232	0xbd7e1b03	-0.06203748
233	0x3ed3f04a	0.41394264
234	0x3e6ec164	0.2331596
235	0x3bbf456f	0.0058371346
236	0xbda57fa0	-0.08080983
237	0xbc9dbe09	-0.019255655
238	0x3e4325ed	0.19057436
239	0xbd15d0a6	-0.036575936
240	0xbe0299e6	-0.1275402
241	0xbe0d7b29	-0.13816513
242	0xbe264caa	-0.16240183
243	0x3d286d93	0.041120123
244	0xbe9ffd80	-0.31248093
245	0xbc645b40	-0.013937771
246	0xbe351b92	-0.17686298
247	0xbd735738	-0.05940935
248	0x3e5ffc25	0.2187353
249	0xbd5ee46c	-0.05441706
250	0x3bf4a900	0.0074664354
251	0xbc9d7883	-0.019222504
252	0xbe7487bb	-0.23879902
253	0xbdb897a8	-0.09013301
254	0xbca3aad3	-0.019978916
255	0x3dad524d	0.08462963

fc3.bias f4 [2]
0	0xbd5cc274	-0.053896382
1	0xbc98b079	-0.018638836
