ckpt/ckpt_best_critic_0.pth (torch, 87029 bytes, 13 tensors)

bn1.weight f4 [128]
0.7511304 1.077195 0.7961884 0.9691261 1.1041983 0.7585012 0.80836403 0.8089283
0.87440026 0.8244881 0.84832186 0.91355896 0.98833144 0.917791 0.91290915 0.67245966
0.8947023 0.9519538 0.8868559 0.9076494 0.8134903 1.0200335 0.849519 1.0649673
1.0054682 0.95967984 1.0372703 0.7637816 1.0062554 0.87683016 0.90528816 0.88779306
0.94658756 0.7395132 0.84343594 0.9512377 1.2070239 0.8734725 0.78975433 1.0295459
0.7825632 0.9039887 0.7538648 0.86620253 1.3312 0.7665003 1.145629 0.994712
0.8060479 0.92901355 0.8777392 0.88740283 0.7889539 1.1871783 0.8802136 0.8643765
0.8556347 0.7838978 1.1267006 0.98218346 0.99347824 1.0209445 0.8859262 0.7864959
1.0838892 0.90139776 0.9493033 0.8009258 0.9025219 0.9230557 0.974937 0.8249866
0.7870047 0.9042352 0.8026071 0.9109144 0.8462542 0.9695666 0.87372094 1.0373703
0.7806598 0.79985726 0.7927855 0.84480566 0.93525547 0.7824423 0.8972918 0.9119726
0.82150656 0.78240055 0.8557486 1.097035 1.0137873 0.7855932 0.74577767 0.8601885
0.8336883 0.87573594 0.8419242 1.0207077 1.0749018 0.9421239 0.8364864 0.8248516
0.9313537 0.7866057 0.844902 1.0691634 0.84275943 0.80673707 0.9954983 0.7695118
0.94122344 1.3065542 1.0388093 1.034648 0.85977113 0.841988 0.94094485 0.8815685
1.0970112 0.8168911 0.99786854 1.1025558 1.0195572 1.6105719 0.7988884 0.8906045
00000000: 154a 403f 87e1 893f 01d3 4b3f a618 783f
00000010: 5f56 8d3f 222d 423f f2f0 4e3f ed15 4f3f
00000020: b2d8 5f3f a711 533f 9f2b 593f 00df 693f
00000030: 4a03 7d3f 5af4 6a3f 6ab4 693f 5126 2c3f
00000040: 360b 653f 3fb3 733f fd08 633f b65b 683f
00000050: e640 503f 7590 823f 147a 593f d950 883f
00000060: 2fb3 803f 94ad 753f 46c5 843f 3187 433f
00000070: facc 803f f177 603f f7c0 673f 6846 633f
00000080: 9053 723f bd50 3d3f 6beb 573f 5084 733f
00000090: c27f 9a3f e59b 5f3f 572d 4a3f 29c8 833f
000000a0: 1056 483f ce6b 673f 49fd 403f 73bf 5d3f
000000b0: c364 aa3f 5d39 443f f9a3 923f 72a5 7e3f
000000c0: 2859 4e3f d5d3 6d3f 84b3 603f d52c 633f
000000d0: e2f8 493f 75f5 973f ae55 613f c747 5d3f
000000e0: e00a 5b3f 87ad 483f ba37 903f 6070 7b3f
000000f0: 9754 7e3f 4fae 823f 0fcc 623f cc57 493f
00000100: e2bc 8a3f 01c2 663f 8b05 733f 7909 4d3f
00000110: ad0b 673f 614d 6c3f 7995 793f 5232 533f
00000120: 2479 493f f57b 673f a977 4d3f b031 693f
00000130: 1ea4 583f 8435 783f 2dac 5f3f 8dc8 843f
00000140: 52d9 473f 72c3 4c3f fef3 4a3f 2f45 583f
00000150: e76c 6f3f 234e 483f eab4 653f 0977 693f
00000160: 414e 523f 674b 483f 5712 5b3f a56b 8c3f
00000170: c8c3 813f a31c 493f 49eb 3e3f 5035 5c3f
00000180: 996c 553f 3b30 603f 5888 573f 8da6 823f
00000190: 6296 893f 082f 713f f923 563f 7929 533f
000001a0: 326d 6e3f fe5e 493f 7f4b 583f 59da 883f
000001b0: 15bf 573f 5286 4e3f fad8 7e3f bafe 443f
000001c0: 05f4 703f 2b3d a73f b4f7 843f 586f 843f
000001d0: f619 5c3f 878c 573f c3e1 703f 79ae 613f
000001e0: dd6a 8c3f c61f 513f 5074 7f3f 8c20 8d3f
000001f0: da80 823f 3827 ce3f f383 4c3f a8fe 633f

bn1.bias f4 [128]
0.026380317 -0.1599125 0.0007631505 0.0230433 0.07655517 -0.12722154 -0.1581664 0.11502881
-0.09804727 -0.030941445 0.23173758 -0.1828218 -0.104047865 -0.06199584 0.1149368 0.1550595
-0.16709472 0.29556772 -0.060984578 0.14646667 -0.012666187 -0.032164436 -0.022036932 0.19606939
0.14415687 0.1091335 0.18442862 0.27552226 -0.037630677 -0.08459647 0.0059848675 0.14521904
-0.06510535 -0.03412458 -0.0070621013 0.07016217 -0.025089238 0.1911768 -0.037667833 0.169573
0.012131781 -0.028575843 -0.08280853 -0.07744164 -0.0075662816 0.22928981 0.043781888 -0.14906262
-0.21308477 0.15285571 0.17207274 -0.11324271 0.16548629 -0.056746703 -0.036611702 -0.011901084
0.06686027 0.07922145 0.074387744 0.032044765 -0.014801855 0.16278635 0.08221296 -0.17016472
0.018688353 0.12004436 -0.09953511 -0.06680189 -0.01585288 0.16169593 -0.117630996 0.053998765
0.061060216 -0.092131644 0.065086685 -8.297001e-05 -0.13373959 -0.039406385 -0.10403955 -0.010581632
0.20346251 -0.1778092 -0.12670147 0.02189643 0.14879975 -0.037863996 0.104152784 0.3036883
-0.07526808 0.10226931 -0.058847375 0.012491706 -0.12873496 -0.027738018 0.2603125 0.034596656
-0.119952746 -0.041825928 0.041786917 0.078743085 -0.011976465 -0.12435394 0.10588901 0.34813604
-0.007054472 -0.06054113 -0.052096907 0.01783003 0.04407768 -0.09412852 0.042426545 -0.16760606
-0.036766488 0.09907914 0.24356452 -0.08531733 0.03477785 -0.07253543 -0.048746347 -0.030461317
0.10889135 0.10573449 -0.028088117 0.015940104 -0.08186961 0.11202796 -0.036127806 0.11966485
00000000: 891b d83c 1ac0 23be 2a0e 483a 4dc5 bc3c
00000010: f5c8 9c3d 5d46 02be 5ff6 21be 3a94 eb3d
00000020: 02cd c8bd ea78 fdbc 9e4c 6d3e a335 3bbe
00000030: 0c17 d5bd 5aef 7dbd fc63 eb3d ebc7 1e3e
00000040: e11a 2bbe a754 973e f7ca 79bd 5cfb 153e
00000050: d785 4fbc dbbe 03bd cc86 b4bc 6ac6 483e
00000060: dc9d 133e 6281 df3d dbda 3c3e 4111 8d3e
00000070: a022 1abd ea40 adbd b51c c43b 4db4 143e
00000080: f455 85bd 37c6 0bbd 3369 e7bb 2fb1 8f3d
00000090: f287 cdbc dac3 433e 9649 1abd 8ba4 2d3e
000000a0: 61c4 463c e317 eabc 8597 a9bd b999 9ebd
000000b0: 92ee f7bb f3ca 6a3e a354 333d dfa3 18be
000000c0: e532 5abe 3586 1c3e d633 303e cbeb e7bd
000000d0: 3d75 293e 3b6f 68bd 27f6 15bd c4fc 42bc
000000e0: 0aee 883d db3e a23d 9a58 983d 5f41 033d
000000f0: 7b83 72bc 77b1 263e 455f a83d a93f 2ebe
00000100: 5118 993c d1d9 f53d 10d9 cbbd 6ecf 88bd
00000110: e6dd 81bc 9e93 253e 85e8 f0bd cf2d 5d3d
00000120: 471a 7a3d 84af bcbd 2b4c 853d 2f00 aeb8
00000130: 08f3 08be 9768 21bd b012 d5bd 955e 2dbc
00000140: 7a58 503e 9d13 36be 08be 01be 2460 b33c
00000150: f65e 183e 4717 1bbd 0e4e d53d 087d 9b3e
00000160: 2726 9abd 9272 d13d f209 71bd 03aa 4c3c
00000170: 19d3 03be d73a e3bc ae47 853e 39b5 0d3d
00000180: c9a9 f5bd aa51 2bbd c228 2b3d 0e44 a13d
00000190: ef38 44bc 47ad febd 56dc d83d e33e b23e
000001a0: 3329 e7bb faf9 77bd 9163 55bd 4810 923c
000001b0: cc8a 343d 74c6 c0bd 75c7 2d3d eca0 2bbe
000001c0: 7598 16bd 01ea ca3d fa68 793e daba aebd
000001d0: 3873 0e3d 758d 94bd 40aa 47bd 038a f9bc
000001e0: 6e02 df3d 538b d83d 0d19 e6bc d294 823c
000001f0: 41ab a7bd ea6e e53d c0fa 13bd d812 f53d

bn1.running_mean f4 [128]
0.23254503 0.38081494 0.9837618 3.7667491 0.2628484 0.68601865 0.87257874 1.1756675
2.2309484 2.8118465 1.4119973 1.7366974 0.9655977 1.91801 3.350022 0.09300718
4.0228734 4.4685936 3.1063156 2.9729228 2.1249852 0.23234604 0.90131587 0.5774273
0.7037948 0.41011506 3.238021 1.4472222 3.2294645 1.3059822 0.46506143 1.6818609
3.2852921 1.5448971 0.82188624 1.7608222 3.019464 1.5764505 0.15507203 0.8648823
2.709807 1.4326407 1.1452954 0.29293975 0.06139454 0.6397291 3.5642533 3.286388
1.4441204 0.95957917 0.8657296 1.2042438 1.4157113 3.6363804 2.1954277 2.297784
3.1551883 0.23424017 0.28301898 4.271096 1.6380069 2.6875966 0.9781881 2.597644
0.14348991 2.116671 0.3430139 3.5849993 0.6943474 0.7154544 0.18711331 0.18910925
1.6587695 0.45067215 0.31059346 1.0974728 1.5258896 0.57109845 2.503712 0.073490426
2.0730472 0.58290285 1.2682103 4.3304157 2.9940083 2.2854583 4.4134946 2.2404065
1.8490273 1.0295713 0.6472821 0.15222785 2.4253132 0.6615469 2.3792214 1.3628749
3.0218065 0.5246556 2.1640682 0.90834564 2.3543959 1.0605209 0.81966776 2.9703553
0.16027005 0.7129238 1.7153482 0.36514372 1.8896679 1.8434168 1.0106722 1.816566
0.55288565 0.037287742 0.23753192 2.4328225 0.12279982 4.6806574 0.8133637 4.643576
0.08884673 2.2526398 3.3706403 2.1860514 2.1549683 0.029344661 1.28642 0.94596374
00000000: 4920 6e3e 2dfa c23e d0d7 7b3f 6b12 7140
00000010: 1194 863e eb9e 2f3f 5261 5f3f 467c 963f
00000020: dcc7 0e40 4bf5 3340 54bc b43f 1a4c de3f
00000030: 6931 773f 5a81 f53f c366 5640 8c7a be3d
00000040: 61bb 8040 b8fe 8e40 e0cd 4640 5e44 3e40
00000050: c2ff 0740 1fec 6d3e a3bc 663f 47d2 133f
00000060: e52b 343f 9afa d13e bc3b 4f40 943e b93f
00000070: 8caf 4e40 6d2a a73f 881c ee3e 3847 d73f
00000080: 3a42 5240 30bf c53f 2367 523f 9f62 e13f
00000090: e63e 4140 21c9 c93f 34cb 1e3e ed68 5d3f
000000a0: 7a6d 2d40 c560 b73f 0a99 923f 33fc 953e
000000b0: d778 7b3d 49c5 233f ba1c 6440 2e54 5240
000000c0: f0d8 b83f fba6 753f 74a0 5d3f a924 9a3f
000000d0: 0736 b53f 75ba 6840 e381 0c40 e50e 1340
000000e0: 9bee 4940 a8dc 6f3e dde7 903e d2ac 8840
000000f0: 36aa d13f 9501 2c40 896a 7a3f cd3f 2640
00000100: 05ef 123e 8a77 0740 859f af3e a170 6540
00000110: c0c0 313f 0528 373f a29a 3f3e dba5 413e
00000120: 8f52 d43f 80be e63e 1b06 9f3e fd79 8c3f
00000130: 5a50 c33f 8233 123f d13c 2040 2682 963d
00000140: ceac 0440 1f39 153f b754 a23f c492 8a40
00000150: d59d 3f40 f344 1240 593b 8d40 d262 0f40
00000160: edac ec3f fec8 833f 48b4 253f 9ee1 1b3e
00000170: 5538 1b40 235b 293f 2a45 1840 af72 ae3f
00000180: 4765 4140 d44f 063f 1880 0a40 5789 683f
00000190: 6cae 1640 26bf 873f bfd5 513f 4d1a 3e40
000001a0: d51d 243e 2d82 363f 8890 db3f 1ef4 ba3e
000001b0: a3e0 f13f 15f5 eb3f b55d 813f 3c85 e83f
000001c0: ea89 0d3f 08bb 183d 913b 733e 5db3 1b40
000001d0: 797e fb3d f2c7 9540 9a38 503f 2d98 9440
000001e0: 46f5 b53d 402b 1040 92b8 5740 44e8 0b40
000001f0: 00eb 0940 3764 f03c 69a9 a43f ae2a 723f

bn1.running_var f4 [128]
0.48600444 0.37598932 1.4804261 9.160576 0.19184132 2.2597663 2.1084669 3.3515415
6.678046 10.079026 5.5226536 1.3619537 2.005783 2.3026876 12.900366 0.36265913
26.445614 7.3286552 9.345709 7.712287 6.627324 0.2263933 3.1239712 1.0260085
1.0131303 0.5881541 4.3084793 4.9889445 7.5030227 3.8813655 1.6229218 2.919627
2.56025 5.2677507 1.8742697 2.1690338 12.886885 3.35022 0.32354566 2.3955233
12.736424 1.5914984 4.87326 0.8029612 0.1105163 1.3700718 19.188103 13.97754
4.8008623 0.9972164 2.6373034 2.4577923 6.090319 21.576162 8.787015 9.39594
8.4589615 0.36481068 0.25751925 23.59385 4.6298456 10.052847 2.535079 6.131855
0.2840611 3.5361738 0.35732338 8.842087 1.2078426 1.4477702 0.18487337 0.38805297
3.7555587 0.775128 0.6545298 2.2665544 3.2781653 1.4270093 17.199099 0.17724858
11.417218 1.9227662 4.6623774 13.108557 5.8701553 7.9565597 7.4898047 6.5396647
4.1447616 2.9373398 0.4769624 0.17705956 7.7265625 1.8092147 8.797911 2.5327632
8.07975 1.1322197 7.1941056 1.0140841 10.626309 1.8015157 1.8526949 10.282013
0.2601598 1.5163916 3.7912915 0.3153564 6.319001 8.087286 2.3846908 7.6576753
1.4131379 0.038189407 0.2682466 5.467257 0.15905936 14.667015 2.5309 19.276043
0.106197484 7.048727 10.796074 6.5279 4.435837 0.07391046 4.7097263 2.273946
00000000: 93d5 f83e ac81 c03e 9a7e bd3f b891 1241
00000010: 0d72 443e 03a0 1040 1ff1 0640 a87f 5640
00000020: 8eb2 d540 b143 2141 94b9 b040 8054 ae3f
00000030: c05e 0040 3c5f 1340 e667 4e41 75ae b93e
00000040: 9e90 d341 5884 ea40 0688 1541 0ecb f640
00000050: 0a13 d440 a5d3 673e 25ef 4740 3f54 833f
00000060: 41ae 813f 4491 163f 10df 8940 6fa5 9f40
00000070: c318 f040 4b68 7840 e7bb cf3f 2bdb 3a40
00000080: 23db 2340 6a91 a840 12e8 ef3f 73d1 0a40
00000090: ae30 4e41 016a 5640 c7a7 a53e 4150 1940
000000a0: 65c8 4b41 38b6 cb3f bff1 9b40 dd8e 4d3f
000000b0: 5f56 e23d 835e af3f 3c81 9941 01a4 5f41
000000c0: aaa0 9940 9349 7f3f 94c9 2840 784c 1d40
000000d0: e5e3 c240 fb9b ac41 9d97 0c41 c555 1641
000000e0: e857 0741 77c8 ba3e 90d9 833e 34c0 bc41
000000f0: b227 9440 76d8 2041 bc3e 2240 2838 c440
00000100: 7570 913e ac50 6240 17f3 b63e 3079 0d41
00000110: 969a 9a3f 8950 b93f 724f 3d3e e1ae c63e
00000120: 135b 7040 ca6e 463f 448f 273f 3a0f 1140
00000130: 76cd 5140 3ea8 b63f c197 8941 a780 353e
00000140: edac 3641 341d f63f 3232 9540 a6bc 5141
00000150: 50d8 bb40 239c fe40 7bac ef40 ef44 d140
00000160: e3a1 8440 60fd 3b40 6a34 f43e 1a4f 353e
00000170: 0040 f740 5994 e73f 3ec4 0c41 cb18 2240
00000180: a846 0141 93ec 903f 1d36 e640 82cd 813f
00000190: 5d05 2a41 1198 e63f 1b25 ed3f 2083 2441
000001a0: aa33 853e 1f19 c23f 85a4 7240 6576 a13e
000001b0: 4235 ca40 8665 0141 c69e 1840 ad0b f540
000001c0: b4e1 b43f 7f6c 1c3d 9e57 893e c5f3 ae40
000001d0: 75e0 223e 18ac 6a41 44fa 2140 5635 9a41
000001e0: 117e d93d 2c8f e140 b8bc 2c41 8fe4 d040
000001f0: 60f2 8d40 5e5e 973d 14b6 9640 5588 1140

bn2.weight f4 [100]
1.0 1.0 1.0 1.0 1.0 1.0 1.0 1.0
1.0 1.0 1.0 1.0 1.0 1.0 1.0 1.0
1.0 1.0 1.0 1.0 1.0 1.0 1.0 1.0
1.0 1.0 1.0 1.0 1.0 1.0 1.0 1.0
1.0 1.0 1.0 1.0 1.0 1.0 1.0 1.0
1.0 1.0 1.0 1.0 1.0 1.0 1.0 1.0
1.0 1.0 1.0 1.0 1.0 1.0 1.0 1.0
1.0 1.0 1.0 1.0 1.0 1.0 1.0 1.0
1.0 1.0 1.0 1.0 1.0 1.0 1.0 1.0
1.0 1.0 1.0 1.0 1.0 1.0 1.0 1.0
1.0 1.0 1.0 1.0 1.0 1.0 1.0 1.0
1.0 1.0 1.0 1.0 1.0 1.0 1.0 1.0
1.0 1.0 1.0 1.0
00000000: 0000 803f 0000 803f 0000 803f 0000 803f
00000010: 0000 803f 0000 803f 0000 803f 0000 803f
00000020: 0000 803f 0000 803f 0000 803f 0000 803f
00000030: 0000 803f 0000 803f 0000 803f 0000 803f
00000040: 0000 803f 0000 803f 0000 803f 0000 803f
00000050: 0000 803f 0000 803f 0000 803f 0000 803f
00000060: 0000 803f 0000 803f 0000 803f 0000 803f
00000070: 0000 803f 0000 803f 0000 803f 0000 803f
00000080: 0000 803f 0000 803f 0000 803f 0000 803f
00000090: 0000 803f 0000 803f 0000 803f 0000 803f
000000a0: 0000 803f 0000 803f 0000 803f 0000 803f
000000b0: 0000 803f 0000 803f 0000 803f 0000 803f
000000c0: 0000 803f 0000 803f 0000 803f 0000 803f
000000d0: 0000 803f 0000 803f 0000 803f 0000 803f
000000e0: 0000 803f 0000 803f 0000 803f 0000 803f
000000f0: 0000 803f 0000 803f 0000 803f 0000 803f
00000100: 0000 803f 0000 803f 0000 803f 0000 803f
00000110: 0000 803f 0000 803f 0000 803f 0000 803f
00000120: 0000 803f 0000 803f 0000 803f 0000 803f
00000130: 0000 803f 0000 803f 0000 803f 0000 803f
00000140: 0000 803f 0000 803f 0000 803f 0000 803f
00000150: 0000 803f 0000 803f 0000 803f 0000 803f
00000160: 0000 803f 0000 803f 0000 803f 0000 803f
00000170: 0000 803f 0000 803f 0000 803f 0000 803f
00000180: 0000 803f 0000 803f 0000 803f 0000 803f

bn2.bias f4 [100]
0.0 0.0 0.0 0.0 0.0 0.0 0.0 0.0
0.0 0.0 0.0 0.0 0.0 0.0 0.0 0.0
0.0 0.0 0.0 0.0 0.0 0.0 0.0 0.0
0.0 0.0 0.0 0.0 0.0 0.0 0.0 0.0
0.0 0.0 0.0 0.0 0.0 0.0 0.0 0.0
0.0 0.0 0.0 0.0 0.0 0.0 0.0 0.0
0.0 0.0 0.0 0.0 0.0 0.0 0.0 0.0
0.0 0.0 0.0 0.0 0.0 0.0 0.0 0.0
0.0 0.0 0.0 0.0 0.0 0.0 0.0 0.0
0.0 0.0 0.0 0.0 0.0 0.0 0.0 0.0
0.0 0.0 0.0 0.0 0.0 0.0 0.0 0.0
0.0 0.0 0.0 0.0 0.0 0.0 0.0 0.0
0.0 0.0 0.0 0.0
00000000: 0000 0000 0000 0000 0000 0000 0000 0000
00000010: 0000 0000 0000 0000 0000 0000 0000 0000
00000020: 0000 0000 0000 0000 0000 0000 0000 0000
00000030: 0000 0000 0000 0000 0000 0000 0000 0000
00000040: 0000 0000 0000 0000 0000 0000 0000 0000
00000050: 0000 0000 0000 0000 0000 0000 0000 0000
00000060: 0000 0000 0000 0000 0000 0000 0000 0000
00000070: 0000 0000 0000 0000 0000 0000 0000 0000
00000080: 0000 0000 0000 0000 0000 0000 0000 0000
00000090: 0000 0000 0000 0000 0000 0000 0000 0000
000000a0: 0000 0000 0000 0000 0000 0000 0000 0000
000000b0: 0000 0000 0000 0000 0000 0000 0000 0000
000000c0: 0000 0000 0000 0000 0000 0000 0000 0000
000000d0: 0000 0000 0000 0000 0000 0000 0000 0000
000000e0: 0000 0000 0000 0000 0000 0000 0000 0000
000000f0: 0000 0000 0000 0000 0000 0000 0000 0000
00000100: 0000 0000 0000 0000 0000 0000 0000 0000
00000110: 0000 0000 0000 0000 0000 0000 0000 0000
00000120: 0000 0000 0000 0000 0000 0000 0000 0000
00000130: 0000 0000 0000 0000 0000 0000 0000 0000
00000140: 0000 0000 0000 0000 0000 0000 0000 0000
00000150: 0000 0000 0000 0000 0000 0000 0000 0000
00000160: 0000 0000 0000 0000 0000 0000 0000 0000
00000170: 0000 0000 0000 0000 0000 0000 0000 0000
00000180: 0000 0000 0000 0000 0000 0000 0000 0000

bn2.running_mean f4 [100]
0.0 0.0 0.0 0.0 0.0 0.0 0.0 0.0
0.0 0.0 0.0 0.0 0.0 0.0 0.0 0.0
0.0 0.0 0.0 0.0 0.0 0.0 0.0 0.0
0.0 0.0 0.0 0.0 0.0 0.0 0.0 0.0
0.0 0.0 0.0 0.0 0.0 0.0 0.0 0.0
0.0 0.0 0.0 0.0 0.0 0.0 0.0 0.0
0.0 0.0 0.0 0.0 0.0 0.0 0.0 0.0
0.0 0.0 0.0 0.0 0.0 0.0 0.0 0.0
0.0 0.0 0.0 0.0 0.0 0.0 0.0 0.0
0.0 0.0 0.0 0.0 0.0 0.0 0.0 0.0
0.0 0.0 0.0 0.0 0.0 0.0 0.0 0.0
0.0 0.0 0.0 0.0 0.0 0.0 0.0 0.0
0.0 0.0 0.0 0.0
00000000: 0000 0000 0000 0000 0000 0000 0000 0000
00000010: 0000 0000 0000 0000 0000 0000 0000 0000
00000020: 0000 0000 0000 0000 0000 0000 0000 0000
00000030: 0000 0000 0000 0000 0000 0000 0000 0000
00000040: 0000 0000 0000 0000 0000 0000 0000 0000
00000050: 0000 0000 0000 0000 0000 0000 0000 0000
00000060: 0000 0000 0000 0000 0000 0000 0000 0000
00000070: 0000 0000 0000 0000 0000 0000 0000 0000
00000080: 0000 0000 0000 0000 0000 0000 0000 0000
00000090: 0000 0000 0000 0000 0000 0000 0000 0000
000000a0: 0000 0000 0000 0000 0000 0000 0000 0000
000000b0: 0000 0000 0000 0000 0000 0000 0000 0000
000000c0: 0000 0000 0000 0000 0000 0000 0000 0000
000000d0: 0000 0000 0000 0000 0000 0000 0000 0000
000000e0: 0000 0000 0000 0000 0000 0000 0000 0000
000000f0: 0000 0000 0000 0000 0000 0000 0000 0000
00000100: 0000 0000 0000 0000 0000 0000 0000 0000
00000110: 0000 0000 0000 0000 0000 0000 0000 0000
00000120: 0000 0000 0000 0000 0000 0000 0000 0000
00000130: 0000 0000 0000 0000 0000 0000 0000 0000
00000140: 0000 0000 0000 0000 0000 0000 0000 0000
00000150: 0000 0000 0000 0000 0000 0000 0000 0000
00000160: 0000 0000 0000 0000 0000 0000 0000 0000
00000170: 0000 0000 0000 0000 0000 0000 0000 0000
00000180: 0000 0000 0000 0000 0000 0000 0000 0000

bn2.running_var f4 [100]
1.0 1.0 1.0 1.0 1.0 1.0 1.0 1.0
1.0 1.0 1.0 1.0 1.0 1.0 1.0 1.0
1.0 1.0 1.0 1.0 1.0 1.0 1.0 1.0
1.0 1.0 1.0 1.0 1.0 1.0 1.0 1.0
1.0 1.0 1.0 1.0 1.0 1.0 1.0 1.0
1.0 1.0 1.0 1.0 1.0 1.0 1.0 1.0
1.0 1.0 1.0 1.0 1.0 1.0 1.0 1.0
1.0 1.0 1.0 1.0 1.0 1.0 1.0 1.0
1.0 1.0 1.0 1.0 1.0 1.0 1.0 1.0
1.0 1.0 1.0 1.0 1.0 1.0 1.0 1.0
1.0 1.0 1.0 1.0 1.0 1.0 1.0 1.0
1.0 1.0 1.0 1.0 1.0 1.0 1.0 1.0
1.0 1.0 1.0 1.0
00000000: 0000 803f 0000 803f 0000 803f 0000 803f
00000010: 0000 803f 0000 803f 0000 803f 0000 803f
00000020: 0000 803f 0000 803f 0000 803f 0000 803f
00000030: 0000 803f 0000 803f 0000 803f 0000 803f
00000040: 0000 803f 0000 803f 0000 803f 0000 803f
00000050: 0000 803f 0000 803f 0000 803f 0000 803f
00000060: 0000 803f 0000 803f 0000 803f 0000 803f
00000070: 0000 803f 0000 803f 0000 803f 0000 803f
00000080: 0000 803f 0000 803f 0000 803f 0000 803f
00000090: 0000 803f 0000 803f 0000 803f 0000 803f
000000a0: 0000 803f 0000 803f 0000 803f 0000 803f
000000b0: 0000 803f 0000 803f 0000 803f 0000 803f
000000c0: 0000 803f 0000 803f 0000 803f 0000 803f
000000d0: 0000 803f 0000 803f 0000 803f 0000 803f
000000e0: 0000 803f 0000 803f 0000 803f 0000 803f
000000f0: 0000 803f 0000 803f 0000 803f 0000 803f
00000100: 0000 803f 0000 803f 0000 803f 0000 803f
00000110: 0000 803f 0000 803f 0000 803f 0000 803f
00000120: 0000 803f 0000 803f 0000 803f 0000 803f
00000130: 0000 803f 0000 803f 0000 803f 0000 803f
00000140: 0000 803f 0000 803f 0000 803f 0000 803f
00000150: 0000 803f 0000 803f 0000 803f 0000 803f
00000160: 0000 803f 0000 803f 0000 803f 0000 803f
00000170: 0000 803f 0000 803f 0000 803f 0000 803f
00000180: 0000 803f 0000 803f 0000 803f 0000 803f

fcs1.weight f4 [128, 48]
0.10641217 -0.054400582 -0.042001408 0.13856854 0.13930362 0.031133674 0.026956396 0.11738669
0.034805186 0.023631748 -0.054574963 -0.13088566 -0.016121646 0.15695116 -0.0384951 -0.10989688
0.15522964 -0.069593206 -0.036049843 -0.010671196 -0.08956266 -0.09819375 0.036683813 -0.0312437
-0.013448367 0.07872617 -0.010044435 -0.035996225 0.02660495 0.013401757 0.0044203275 0.01311553
0.026512824 0.11167246 -0.03013601 -0.042559523 0.039363224 0.1547845 0.025588375 -0.016664328
0.026681097 0.094363905 -0.0155644845 0.057677355 0.22935568 -0.124797456 0.0070809787 -0.05597266
-0.0198926 -0.034420524 -0.01064868 0.046809338 0.16158329 0.08178987 0.0077793584 -0.05572894
-0.009900733 0.11605611 0.03367374 -0.0065092356 0.04250201 -0.023486568 -0.038039684 0.049440082
0.060267676 0.034527883 0.002991068 -0.014890717 -0.2268707 -0.074069776 -0.010903357 -0.013813394
-0.0137299765 0.05888602 -0.010575809 -0.0668128 -0.1362277 0.102479465 0.01134476 0.05778057
0.041850068 0.072347745 -0.08569048 0.01963661 0.02241869 -0.08957838 0.08507801 -0.012445643
-0.06471728 0.07894497 0.024247723 -0.049273506 0.24689922 -0.078068525 -0.02339485 0.034107912
0.047303014 -0.010588732 0.007840021 0.014259804 0.027699338 0.2833545 0.027146565 -0.05765117
-0.076706536 0.001820756 0.037027925 -0.06414685 0.05557941 0.09342168 -0.08024554 -0.050286196
-0.016446544 -0.063021116 0.025880154 0.04116448 -0.016392602 -0.17226264 -0.036794797 0.07522714
-0.07382136 0.125521 -0.034801155 -0.000640056 0.030199623 0.27540228 0.018696958 0.052937035
0.059995748 0.1350555 0.005022155 -0.123686366 -0.027060736 0.05870903 -0.05428196 -0.034462575
0.13148212 0.063774444 -0.013238317 0.089446224 0.08306237 -0.19035386 0.014803465 0.03891092
-0.11602791 0.19032657 0.03492394 -0.06755809 0.1273018 0.16904868 -0.039999876 0.090972975
-0.13494897 0.12245676 -0.02092505 -0.066514514 0.07344675 -0.018204637 0.03696944 0.018915225
0.03188341 0.10983378 0.015423231 -0.08214687 0.09844131 0.068716384 -0.042128805 -0.06419408
-0.005626143 0.08076687 0.050741322 0.054559518 -0.13795403 0.067909494 -0.041056186 -0.07692203
-0.054339767 0.20385684 0.032836623 0.009850557 -0.08433883 -0.043981336 -0.024964066 0.009799676
-0.060498457 0.14340362 -0.024171133 -0.06749832 -0.018592637 0.073603354 0.044496838 -0.018853353
0.0026039944 -0.054001518 0.03687746 0.049088936 0.16266969 0.09095246 -0.039611742 -0.034958698
0.027049622 -0.056429826 -0.0434468 0.025859261 -0.042842768 0.04680968 0.04205321 -0.036545195
0.07456012 -0.1548957 -0.015976068 0.06294466 -0.21790539 -0.11686183 0.017256422 -0.022060977
-0.038396996 0.017723596 0.079890944 0.0306618 -0.0808608 0.17566842 -0.07959958 -0.026049891
-0.009222344 0.10042218 -0.034766052 0.06197492 -0.03827676 0.06928067 0.030436423 -0.06403288
0.06939929 -0.005224403 0.017348722 0.024196815 0.13008401 -0.020304173 -0.02265222 -0.03394375
-0.11593005 0.106266044 0.014732178 0.12073595 0.12383233 -0.15634231 0.044484925 -0.03192208
-0.015698288 0.17312795 0.03508776 -0.048832014 0.004473353 -0.1199834 -0.034572054 0.053950883
00000000: a0ee d93d 25d3 5ebd ab09 2cbd e9e4 0d3e
00000010: 9ca5 0e3e 0c0c ff3c a9d3 dc3c 6f68 f03d
00000020: e28f 0e3d 5e97 c13c ff89 5fbd e406 06be
00000030: 8b11 84bc ceb7 203e 0aad 1dbd 9e11 e1bd
00000040: 85f4 1e3e e286 8ebd 00a9 13bd 3dd6 2ebc
00000050: a16c b7bd ce19 c9bd c441 163d caf2 ffbc
00000060: 8a56 5cbc 303b a13d 6a91 24bc c770 13bd
00000070: a0f2 d93c 0b93 5b3c 65d8 903b 85e2 563c
00000080: 6c31 d93c 88b4 e43d cbdf f6bc e552 2ebd
00000090: 553b 213d d47f 1e3e b69e d13c a183 88bc
000000a0: 5192 da3c dd41 c13d 2e02 7fbc 173f 6c3d
000000b0: 37dc 6a3e cf95 ffbd 8e07 e83b 9743 65bd
000000c0: cef5 a2bc 89fc 0cbd cd77 2ebc 26bb 3f3d
000000d0: 1776 253e 7381 a73d fde9 fe3b 0744 64bd
000000e0: af36 22bc d3ae ed3d 7aed 093d 6d4b d5bb
000000f0: 9616 2e3d e766 c0bc 80cf 1bbd af81 4a3d
00000100: 3ddb 763d 1c6d 0d3d cb05 443b 32f8 73bc
00000110: cb50 68be e5b1 97bd fea3 32bc 9351 62bc
00000120: b2f3 60bc 7832 713d 2846 2dbc 26d5 88bd
00000130: 467f 0bbe c1e0 d13d 5fdf 393c 52ab 6c3d
00000140: fa6a 2b3d 0e2b 943d 7e7e afbd f5dc a03c
00000150: 67a7 b73c df74 b7bd 613d ae3d cfe8 4bbc
00000160: 7e8a 84bd e7ad a13d 29a3 c63c 04d3 49bd
00000170: 26d3 7c3e 64e2 9fbd 8ea6 bfbc bdb4 0b3d
00000180: cec0 413d 5c7c 2dbc 6e73 003c f4a1 693c
00000190: b9e9 e23c d713 913e 7962 de3c a223 6cbd
000001a0: 5118 9dbd 6fa6 ee3a 98aa 173d 6c5f 83bd
000001b0: 3ca7 633d de53 bf3d c657 a4bd e6f8 4dbd
000001c0: e7ba 86bc 3711 81bd 9e02 d43c 169c 283d
000001d0: c749 86bc 9e65 30be 24b6 16bd b010 9a3d
000001e0: a72f 97bd 9488 003e a88b 0ebd 6ec9 27ba
000001f0: 3365 f73c 8701 8d3e 5d2a 993c 81d4 583d
00000200: 1abe 753d fd4b 0a3e e490 a43b 474f fdbd
00000210: 7aae ddbc e178 703d c356 5ebd a128 0dbd
00000220: 40a3 063e 2d9c 823d 87e5 58bc 952f b73d
00000230: 9b1c aa3d 1fec 42be 3c8a 723c 0f61 1f3d
00000240: 0aa0 edbd f8e4 423e 680c 0f3d e55b 8abd
00000250: 675b 023e 191b 2d3e e9d6 23bd 0a50 ba3d
00000260: 1030 0abe 9cca fa3d 036b abbc c338 88bd
00000270: 406b 963d e421 95bc 446d 173d 1af4 9a3c
00000280: 2e98 023d 88f0 e03d b8b1 7c3c 9e3c a8bd
00000290: 999b c93d 2dbb 8c3d 418f 2cbd 3078 83bd
000002a0: 825b b8bb 1a69 a53d 22d6 4f3d cd79 5f3d
000002b0: d243 0dbe 2214 8b3d 882a 28bd 4c89 9dbd
000002c0: 6093 5ebd d9bf 503e b27f 063d 3b64 213c
000002d0: d6b9 acbd c625 34bd 7181 ccbc d28e 203c
000002e0: 3bcd 77bd 66d8 123e 8a02 c6bc 8f3c 8abd
000002f0: 964f 98bc 5bbd 963d 5142 363d 5972 9abc
00000300: c7a7 2a3b b230 5dbd d20c 173d 7b11 493d
00000310: e292 263e 4945 ba3d ec3f 22bd da30 0fbd
00000320: 2b97 dd3c f622 67bd 46f5 31bd cdd6 d33c
00000330: e67b 2fbd 82bb 3f3d fd3f 2c3d 6ab0 15bd
00000340: fab2 983d fa9c 1ebe 3ee0 82bc 21e9 803d
00000350: 9722 5fbe 4155 efbd 575d 8d3c 39b9 b4bc
00000360: 2b46 1dbd 1331 913c dd9d a33d 752e fb3c
00000370: 599a a5bd 6ce2 333e 1b05 a3bd 9566 d5bc
00000380: 5019 17bc 25aa cd3d d966 0ebd 6ad9 7d3d
00000390: 18c8 1cbd 06e3 8d3d ce55 f93c ac23 83bd
000003a0: 3721 8e3d 7831 abbb e81e 8e3c 6638 c63c
000003b0: be34 053e f054 a6bc 2691 b9bc 9a08 0bbd
000003c0: bc6c edbd 03a2 d93d 3c5f 713c 6944 f73d
000003d0: ce9b fd3d 3318 20be d335 363d bac0 02bd
000003e0: b299 80bc 7448 313e 2fb8 0f3d 1404 48bd
000003f0: 3495 923b dbb9 f5bd 6d9b 0dbd 9afb 5c3d

fcs1.bias f4 [128]
-0.045638002 0.041356273 -0.034057155 0.12380757 -0.34390697 -0.0022308703 -0.34676272 -0.12302587
-0.35214445 0.06816232 0.12575741 -0.09398783 0.07645418 -0.11735968 0.13818425 0.1265955
0.049890973 -0.06089785 -0.11242588 -0.18454327 0.06910784 -0.2642483 -0.052720193 -0.26832643
-0.11463371 -0.21772864 -0.31833398 -0.11263508 -0.1383756 -0.089592256 0.044792894 -0.1679877
-0.22875017 0.12526765 -0.10475035 0.019726938 -0.12676556 0.25889298 -0.07181883 0.051754985
0.026408626 -0.1449965 -0.047723245 0.0055306847 -0.09697775 -0.19751099 -0.16082616 -0.258631
0.17037773 0.1250865 0.025662752 -0.18817942 -0.12727275 -0.29033825 0.057199538 0.02850956
0.09658864 -0.25895584 -0.29289025 0.02491264 -0.26288366 0.025122412 0.12741894 -0.08812921
0.041531943 0.043193486 -0.19956696 0.13377403 -0.09833819 0.0062996903 -0.0017743005 -0.16125053
-0.046670534 -0.12816186 -0.08419219 0.031794835 -0.055102594 0.0645197 0.20648576 -0.0027480025
-0.04728967 -0.14990738 -0.2532172 -0.20125458 -0.15313135 -0.043484192 -0.1628946 -0.08733322
-0.088666305 0.1357524 -0.15499699 -0.05747904 -0.24158707 0.051339675 -0.23848794 -0.17855999
0.21711142 -0.20211829 0.15487422 -0.16792601 -0.03850834 -0.053359818 -0.049830172 -0.05772133
-0.09446061 -0.014122623 0.25720924 -0.068568006 0.09608267 -0.015077703 -0.13069919 -0.1065287
-0.25153625 -0.18955393 -0.41940054 -0.0366099 0.09724106 -0.19782901 -0.10559985 -0.0269042
-0.15912703 -0.06410627 0.21337982 0.16388457 0.1800871 0.090477504 -0.033251543 -0.029415675
00000000: eaee 3abd 3265 293d 847f 0bbd d38e fd3d
00000010: 9314 b0be cb33 12bb e28a b1be fdf4 fbbd
00000020: 474c b4be b098 8b3d 8dc6 003e b17c c0bd
00000030: 0294 9c3d 465a f0bd 2c80 0d3e 40a2 013e
00000040: 7a5a 4c3d 0670 79bd 8a3f e6bd e9f8 3cbe
00000050: 6988 8d3d 8e4b 87be 21f1 57bd 1562 89be
00000060: 14c5 eabd 42f4 5ebe acfc a2be 39ad e6bd
00000070: 55b2 0dbe 257c b7bd c178 373d f804 2cbe
00000080: 7c3d 6abe 2a46 003e 5a87 d6bd 639a a13c
00000090: d5ce 01be 9f8d 843e c015 93bd 09fd 533d
000000a0: e756 d83c f679 14be 7379 43bd bf3a b53b
000000b0: 459c c6bd 5240 4abe 9daf 24be 486b 84be
000000c0: 8077 2e3e ad16 003e b13a d23c 1bb2 40be
000000d0: ca53 02be 37a7 94be 104a 6a3d e18c e93c
000000e0: 44d0 c53d dc95 84be b6f5 95be 9815 cc3c
000000f0: b098 86be 84cd cd3c 1c7a 023e 167d b4bd
00000100: 661d 2a3d a7eb 303d 485b 4cbe 0ffc 083e
00000110: 8865 c9bd a26d ce3b a58f e8ba dc1e 25be
00000120: 9a29 3fbd dd3c 03be f46c acbd 4d3b 023d
00000130: 42b3 61bd e822 843d 0171 533e d517 34bb
00000140: d0b2 41bd 5281 19be afa5 81be ae15 4ebe
00000150: 77ce 1cbe 7b1c 32bd d8cd 26be c2db b2bd
00000160: ae96 b5bd ad02 0b3e 88b7 1ebe 246f 6bbd
00000170: 9a62 77be 8d49 523d 2f36 74be 6ed8 36be
00000180: 7552 5e3e 19f8 4ebe 5997 1e3e ccf4 2bbe
00000190: ecba 1dbd d38f 5abd b91a 4cbd 346d 6cbd
000001a0: 9074 c1bd 9362 67bc eeb0 833e 626d 8cbd
000001b0: fec6 c43d 7808 77bc 02d6 05be b82b dabd
000001c0: 5cc9 80be 6d1a 42be abbb d6be 43f4 15bd
000001d0: 5226 c73d b093 4abe bc44 d8bd 3266 dcbc
000001e0: 32f2 22be 264a 83bd 3d80 5a3e 5bd1 273e
000001f0: c168 383e 454c b93d c532 08bd 24f9 f0bc

fc2.weight f4 [100, 132]
0.11386268 0.030528195 0.00515106 -0.035842504 -0.028387599 -0.06598598 0.11366857 -0.022597732
-0.033186506 -0.0061597875 -0.1076558 -0.024359524 -0.0123376055 -0.038479645 -0.03806664 -0.014036839
0.10563703 -0.13553846 0.04913674 -0.096917845 0.005602241 0.091227464 0.022240091 0.08131252
0.006580418 -0.047583047 -0.07994241 0.041763578 -0.07924836 -0.10444927 -0.07322776 0.07123613
-0.04887555 0.008486225 -0.07976185 0.060895864 -0.0037042738 -0.047105998 -0.045300312 -0.09340544
0.047550395 -0.06270437 0.09657665 -0.010562113 -0.27931675 -0.049239453 0.02586908 0.051573083
-0.01991077 0.041296303 -0.17413045 -0.0029166902 -0.09209936 -0.1434616 -0.0026723917 -0.050224338
0.016306162 0.08950686 -0.054232765 0.049252357 0.00751349 0.014984932 0.04918171 0.04185577
-0.14277118 -0.07129569 -0.040981263 0.036137093 0.06798607 -0.04229079 -0.017470408 0.10317094
0.040423166 0.036445517 -0.043702245 -0.02337483 -0.036576036 -0.029523302 0.03771223 -0.061519343
-0.08600383 0.05174289 -0.03393568 -0.16432786 -0.043106537 -0.04095278 0.011192381 -0.009964224
0.039184105 -0.019403078 0.00704652 -0.058776367 0.010975196 0.03144005 -0.033237148 -0.014116785
0.021846833 0.015406843 0.029569812 0.029811341 0.030846354 0.013390209 -0.06326305 -0.028751746
0.04256107 0.091464974 -0.012590321 0.0658772 -0.052305758 -0.03756256 -0.048653495 0.04494278
0.024885772 0.06439767 -0.15896194 -0.10874518 0.07847713 -0.08738756 -0.0852433 -0.022001727
0.0033522053 -0.036959387 0.061710365 -0.13112083 0.07683248 0.0006867937 0.03521092 -0.018496498
-0.17028277 0.04917407 -0.032428905 -0.09061616 -0.0021718468 0.104169734 0.034786936 0.014428501
-0.01138875 -0.03392605 0.12602267 -0.021903142 -0.085563734 -0.06295941 -0.06660563 0.039209105
0.02234664 0.03286394 0.0022415258 0.004481004 0.06908038 -0.032302976 -0.080992244 -0.0682096
0.005556338 0.03843455 0.05554055 -0.045447502 -0.010209265 0.035263855 -0.025041075 0.009641703
-0.07374017 -0.05617156 -0.0056548514 -0.12686148 0.07165339 0.02177002 0.07266251 0.014026994
0.032444134 -0.082641825 -0.0438841 -0.101571105 0.031340957 0.046324972 -0.019834628 -0.12343224
-0.32737717 -0.028561132 0.008550038 -0.030653227 0.059529636 0.014037571 -0.06848224 -0.038577754
0.031786036 0.05638103 0.005753124 -0.022342952 0.14754191 -0.039735418 0.11872077 0.09160604
-0.07053931 -0.105654284 -0.0027829704 -0.013873097 0.0046904734 0.03679416 -0.006885004 0.01058361
-0.052960824 -0.109001346 -0.013684886 0.052333854 0.027593184 -0.03943975 -0.0584403 -0.025912507
-0.055864397 -0.070266254 0.034204274 0.02788987 0.00912597 -0.06179549 -0.06751013 0.008107598
-0.06798623 -0.05264944 -0.04658172 -0.079084404 0.037360243 0.0024114517 0.0036534031 -0.03224763
-0.041576084 0.045264054 -0.006703424 0.034337062 -0.021824086 0.07465163 -0.01827526 -0.10592808
-0.029415114 0.02918309 0.027775172 -0.059660595 -0.035586443 -0.018085746 -0.00397257 0.06662071
0.036078848 -0.043219432 0.061111137 0.051794324 -0.03953368 0.022642534 -0.047409847 0.012476907
0.008898945 -0.10801861 0.07016983 0.013036124 -0.08863518 0.052028902 -0.038534746 0.078535415
00000000: d630 e93d 4416 fa3c 39ca a83b 97cf 12bd
00000010: 1c8d e8bc a823 87bd 11cb e83d e11e b9bc
00000020: 93ee 07bd 0bd8 c9bb a57a dcbd a08d c7bc
00000030: ab23 4abc d59c 1dbd c4eb 1bbd c5fa 65bc
00000040: 3a58 d83d 98ca 0abe 9b43 493d dd7c c6bd
00000050: 0193 b73b 77d5 ba3d da30 b63c 2e87 a63d
00000060: 8ca0 d73b 71e6 42bd d9b8 a3bd 4910 2b3d
00000070: f74c a2bd 80e9 d5bd 70f8 95bd 40e4 913d
00000080: bb31 48bd cf09 0b3c 2e5a a3bd f16d 793d
00000090: 67c3 72bb 38f2 40bd d28c 39bd 5a4b bfbd
000000a0: 34c4 423d 266b 80bd fbc9 c53d b60c 2dbc
000000b0: 9b02 8fbe 4faf 49bd 65eb d33c 4c3e 533d
000000c0: e91b a3bc 5026 293d 414f 32be f125 3fbb
000000d0: 979e bcbd 99e7 12be 4b23 2fbb 09b8 4dbd
000000e0: 8094 853c 5f4f b73d 2d23 5ebd d7bc 493d
000000f0: b933 f63b 5c83 753c c372 493d f570 2b3d
00000100: 9c32 12be 7a03 92bd f8db 27bd 7d04 143d
00000110: 483c 8b3d 1b39 2dbd 1a1e 8fbc 494b d33d
00000120: c392 253d e547 153d 2001 33bd 927c bfbc
00000130: c1d0 15bd dada f1bc 2478 1a3d b5fb 7bbd
00000140: c722 b0bd 5af0 533d 2400 0bbd 9045 28be
00000150: 7b90 30bd 1abe 27bd 4060 373c fc40 23bc
00000160: 837f 203d 34f3 9ebc 7ee6 e63b 7dbf 70bd
00000170: 4fd1 333c 48c7 003d ad23 08bd 164a 67bc
00000180: 21f8 b23c fc6c 7c3c 643c f23c ea36 f43c
00000190: 7eb1 fc3c 9b62 5b3c 0f90 81bd c888 ebbc
000001a0: 8454 2e3d fd51 bb3d a247 4ebc a0ea 863d
000001b0: 903e 56bd 33db 19bd e348 47bd ec15 383d
000001c0: 3fdd cb3c ede2 833d ebc6 22be cbb5 debd
000001d0: 9eb8 a03d 40f8 b2bd 0a94 aebd f73c b4bc
000001e0: acb0 5b3b ba62 17bd 02c4 7c3d 8a44 06be
000001f0: 595a 9d3d f209 343a 5339 103d f885 97bc
00000200: 9b5e 2ebe c06a 493d 2cd4 04bd f794 b9bd
00000210: 8b55 0ebb f156 d53d bf7c 0e3d 8565 6c3c
00000220: e197 3abc 0bf6 0abd 160c 013e 386e b3bc
00000230: 0a3c afbd ddf0 80bd 8868 88bd ba99 203d
00000240: 4d10 b73c 579c 063d 90e6 123b 63d5 923b
00000250: 047a 8d3d 2050 04bd 43df a5bd 7ab1 8bbd
00000260: f111 b63b 8c6d 1d3d 7d7e 633d 2927 3abd
00000270: c344 27bc d570 103d f122 cdbc 3cf8 1d3c
00000280: 1605 97bd 2614 66bd 554c b9bb fae7 01be
00000290: 03bf 923d 0a57 b23c 15d0 943d 7ad1 653c
000002a0: 24e4 043d 1e40 a9bd d0bf 33bd 8304 d0bd
000002b0: 605f 003d 41bf 3d3d 3b7c a2bc 0bca fcbd
000002c0: fb9d a7be 09f9 e9bc 7515 0c3c 7a1c fbbc
000002d0: 59d5 733d d7fd 653c 6b40 8cbd b503 1ebd
000002e0: 1332 023d cbef 663d b484 bc3b 9108 b7bc
000002f0: 3a15 173e 9bc1 22bd e023 f33d f39b bb3d
00000300: ea76 90bd 4661 d8bd 7f62 36bb fc4b 63bc
00000310: 8bb2 993b 79b5 163d 9a9b e1bb e166 2d3c
00000320: 73ed 58bd 193c dfbd 9236 60bc 065c 563d
00000330: 1a0b e23c 938b 21bd 195f 6fbd 7746 d4bc
00000340: 11d2 64bd c1e7 8fbd c819 0c3d 4c79 e43c
00000350: 1885 153c 451d 7dbd c042 8abd bbd5 043c
00000360: 5d3c 8bbd f0a6 57bd 79cc 3ebd 01f7 a1bd
00000370: 0e07 193d 7209 1e3b ef6d 6f3b 1716 04bd
00000380: af4b 2abd cd66 393d 65a8 dbbb 05a5 0c3d
00000390: 6dc8 b2bc f4e2 983d 00b6 95bc d2f0 d8bd
000003a0: f7f7 f0bc 6011 ef3c c288 e33c ab5e 74bd
000003b0: 17c3 11bd 8f28 94bc 552c 82bb 7070 883d
000003c0: 6ac7 133d dc06 31bd ac4f 7a3d 4926 543d
000003d0: 11ee 21bd d67c b93c d430 42bd f16b 4c3c
000003e0: e1cc 113c dc38 ddbd 33b5 8f3d 7895 553c
000003f0: 5c86 b5bd 421c 553d 9cd6 1dbd 2dd7 a03d

fc2.bias f4 [100]
-0.042124033 -0.18067749 0.11427643 0.07960846 -0.19773646 -0.162338 -0.03566273 -0.0815485
-0.0580939 -0.07309963 -0.02337379 -0.08352545 -0.093773745 0.0422785 -0.019557064 -0.09314271
-0.049325597 0.027996192 -0.12990165 0.002957314 0.1372723 0.08960033 0.0017936442 -0.11332897
-0.049668543 -0.16809143 -0.053940292 -0.017296849 0.06977103 -0.06534016 0.14712238 -0.03585717
-0.031738073 -0.12637644 0.10071309 0.037672132 0.14266998 0.013271987 0.07344793 -0.109991595
-0.02212935 -0.116875045 -0.08943858 -0.0072144833 -0.00919712 -0.06303296 0.037681434 -0.017417602
-0.08979292 -0.12321758 -0.24399868 -0.12573469 0.08704176 -0.06169155 -0.17575343 -0.034707133
-0.074796714 -0.091240965 -0.045183767 0.044544265 0.10631685 -0.22427544 0.0027571432 -0.011077885
-0.2652194 -0.037417453 -0.11264594 -0.11140617 -0.030464564 -0.02612715 -0.115930274 -0.12483896
-0.06556364 -0.06429142 -0.116160065 -0.0067591146 -0.020527061 -0.07752805 0.004640147 0.064053886
-0.0824415 0.05361489 0.11419347 -0.041508812 -0.0796441 -0.05977381 0.034341548 -0.11671504
-0.07431864 -0.11573362 -0.110533446 -0.034011748 0.013565883 -0.08173 0.029410575 0.004652227
-0.18008687 -0.113611 -0.13729504 -0.19264497
00000000: 408a 2cbd 8503 39be c309 ea3d c309 a33d
00000010: 6d7b 4abe ef3b 26be 1513 12bd e602 a7bd
00000020: dff3 6dbd 42b5 95bd 647a bfbc 640f abbd
00000030: 730c c0bd 382c 2d3d 2336 a0bc 9bc1 bebd
00000040: a309 4abd 4558 e53c f004 05be 7fcf 413b
00000050: 1c91 0c3e 6180 b73d b618 eb3a 0519 e8bd
00000060: 3e71 4bbd 2920 2cbe 7ff0 5cbd 1fb2 8dbc
00000070: 1de4 8e3d 10d1 85bd 40a7 163e f8de 12bd
00000080: c8ff 01bd d368 01be aa42 ce3d 184e 1a3d
00000090: 1418 123e c072 593c de6b 963d 4643 e1bd
000000a0: 9c48 b5bc 2f5c efbd 932b b7bd 7967 ecbb
000000b0: 84af 16bc 6d17 81bd d957 1a3d 5caf 8ebc
000000c0: 5ae5 b7bd 8059 fcbd cada 79be 98c0 00be
000000d0: f342 b23d 47b0 7cbd b5f8 33be 1129 0ebd
000000e0: 052f 99bd 8bdc babd 9d12 39bd 0c74 363d
000000f0: a6bc d93d 76a8 65be 30b1 343b 0480 35bc
00000100: d6ca 87be 0b43 19bd eab2 e6bd eb28 e4bd
00000110: d290 f9bc 9b08 d6bc da6c edbd 92ab ffbd
00000120: 3b46 86bd 38ab 83bd 54e5 edbd 907b ddbb
00000130: 5e28 a8bc 07c7 9ebd 600c 983b af2e 833d
00000140: 17d7 a8bd 499b 5b3d 44de e93d 2505 2abd
00000150: 721c a3bd 62d5 74bd b9a9 0c3d 4b08 efbd
00000160: 5f34 98bd c005 edbd 5c5f e2bd e74f 0bbd
00000170: 7043 5e3c 0f62 a7bd 72ee f03c b571 983b
00000180: b168 38be e2ac e8bd 1297 0cbe b944 45be

fc3.weight f4 [1, 100]
-0.022515044 0.04204748 0.014275483 0.023897473 0.12188484 0.023408618 0.019453138 0.018362662
0.020735363 -0.019330319 -0.018204967 0.021151906 -0.022096576 0.028350951 -0.019924624 -0.016506104
0.030108685 0.023073014 -0.022357728 0.041853897 0.03031272 0.02967661 0.038415413 -0.021242138
-0.028421734 -0.039696362 -0.03401582 0.112738214 0.01380312 0.04032483 0.023680862 -0.037205853
-0.019235248 -0.02066861 0.019362861 -0.0113148345 0.034575425 0.020410577 0.02909944 0.016222585
-0.017307362 -0.02225558 0.015292836 -0.019297518 -0.013160924 -0.02255326 0.021725968 -0.03212
-0.016540445 -0.019010888 -0.06580105 -0.018768352 0.027865563 0.019622702 0.09977847 0.020534936
-0.021897813 -0.020716392 -0.028987898 0.029076919 0.030671708 -0.048142213 0.026336865 -0.032125223
-0.061930917 0.01919649 -0.031729057 -0.019022588 0.025932575 -0.010953872 -0.014046875 -0.035245307
0.039570685 0.030035691 -0.018402033 0.026770795 -0.014567429 0.02389583 -0.021135885 0.02547927
0.025571607 0.013198488 0.026170107 -0.02258626 -0.020097112 -0.038604535 0.019014183 -0.032402802
-0.020155158 -0.020536777 -0.03540527 -0.015408544 0.024287578 -0.03735241 0.028350117 0.024003934
-0.07400813 -0.01234299 -0.022286316 -0.04847524
00000000: 7871 b8bc fa39 2c3d b7e3 693c a2c4 c33c
00000010: c29e f93d 6ec3 bf3c 305c 9f3c 4b6d 963c
00000020: 35dd a93c 9e5a 9ebc 9522 95bc c346 ad3c
00000030: e103 b5bc 4140 e83c f738 a3bc cf37 87bc
00000040: 7da6 f63c 9e03 bd3c 8e27 b7bc fe6e 2b3d
00000050: 6252 f83c 5d1c f33c 7b59 1d3d fe03 aebc
00000060: b2d4 e8bc a798 22bd 2c54 0bbd 4be3 e63d
00000070: 7b26 623c a62b 253d 5efe c13c 2a65 18bd
00000080: 3d93 9dbc 3851 a9bc dd9e 9e3c db61 39bc
00000090: f69e 0d3d 1534 a73c f361 ee3c 3ae5 843c
000000a0: 2bc8 8dbc 5651 b6bc ce8e 7a3c d415 9ebc
000000b0: eba0 57bc 9dc1 b8bc a8fa b13c 4390 03bd
000000c0: d47f 87bc b9bc 9bbc b3c2 86bd 16c0 99bc
000000d0: 5246 e43c cabf a03c a858 cc3d e238 a83c
000000e0: 0b63 b3bc 6cb5 a9bc 0778 edbc b832 ee3c
000000f0: 3c43 fb3c c530 45bd 69c0 d73c bd95 03bd
00000100: 46ab 7dbd f541 9d3c 54f6 01bd 42d5 9bbc
00000110: 8d70 d43c df77 33bc dd24 66bc 625d 10bd
00000120: df14 223d 690d f63c dcbf 96bc 6d4e db3c
00000130: 3aac 6ebc 30c1 c33c 2a25 adbc e7b9 d03c
00000140: 8c7b d13c 793e 583c b162 d63c d206 b9bc
00000150: b3a2 a4bc ca1f 1ebd a2c3 9b3c cdb8 04bd
00000160: 6e1c a5bc be3c a8bc 1e05 11bd 1e74 7cbc
00000170: bef6 c63c d7fe 18bd 813e e83c e6a3 c43c
00000180: 9391 97bd 413a 4abc cb91 b6bc f98d 46bd
