ckpt/ckpt_best_actor_1.pth (torch, 120452 bytes, 10 tensors)

bn1.weight f4 [156]
00000000: 0973 9b3f ff3a 943f e58d a03f e441 863f
00000010: fcf8 973f 9bb5 9b3f 9829 943f 1fd7 953f
00000020: 56c8 9a3f 214d 923f d3e1 8c3f 71f6 913f
00000030: b3fd 9e3f bfb0 923f b2b9 c43f ef51 913f
00000040: 4ef6 923f 725d a63f f099 9a3f 0ae9 923f
00000050: 51a1 883f 4776 8f3f 4441 953f 19a5 943f
00000060: c317 9e3f 7d2e a33f 61f1 983f fee6 8e3f
00000070: e6cc d43f 84f0 953f 3d4d 8e3f 9943 973f
00000080: da62 9f3f c242 933f 74e6 983f 86bf 983f
00000090: 859a 943f 037c 9f3f 9450 b83f 5812 963f
000000a0: 3f5a 8b3f a79d 903f 80b1 923f 5500 983f
000000b0: 82d7 a83f 551a a23f 375f 973f 39d0 943f
000000c0: a6ba a13f 4b87 943f 6197 873f c0cc 963f
000000d0: d04f ae3f 7959 a23f 3bd8 963f a0f7 a23f
000000e0: bd83 9e3f 4556 9f3f 1314 b23f de90 a13f
000000f0: 0b2d 923f 2f2c 943f a1f4 993f 32d3 9f3f
00000100: a54a 923f c67e a13f c17e 9a3f ea47 883f
00000110: 5db8 933f c224 8c3f b1fd 983f ca78 8f3f
00000120: b5f2 a23f c18f 9a3f bb21 933f 6b97 9c3f
00000130: 98c2 8e3f 2647 9a3f 4220 9f3f f7d6 993f
00000140: 5ea2 913f 0d6d 983f d2c7 993f 71c8 953f
00000150: 36fc 9f3f 6ede 953f bb4f a03f 8102 9b3f
00000160: 7090 8a3f dd77 a73f aeb7 983f 6031 b53f
00000170: 8f53 883f 8b8d a03f 611b 9b3f 24c7 9e3f
00000180: 380c 9e3f 5438 8e3f 3766 953f 74ba 9b3f
00000190: 9787 a43f 33a2 963f 6066 a63f 08e5 8c3f
000001a0: 6a81 963f 3f92 a13f c46e 9d3f cd72 903f
000001b0: e9ac 903f 7ef2 a73f cf84 993f 3b38 973f
000001c0: 7846 8f3f ae7a 8e3f 946c 963f 11a2 893f
000001d0: 4d08 a63f 7029 933f 0e00 953f afd7 9c3f
000001e0: 1274 963f 030e 8a3f d726 993f 0ea9 963f
000001f0: 9e0e a23f 413e 903f 0fc8 9c3f 285d 973f
00000200: 8d1e b13f 46ae 9e3f 3ece 973f 920d 983f
00000210: 8dac 8e3f 9be0 903f a063 a03f 71a2 df3f
00000220: 2184 8f3f 6a3c 893f cf7c 973f dd30 913f
00000230: bfaa 963f 5561 993f 8426 a23f e695 933f
00000240: 070c aa3f 1a3f 983f eac4 9a3f b4a6 a13f
00000250: a119 993f b7d8 913f f1eb 943f 8938 ad3f
00000260: 211c 9d3f aa45 b53f 36f7 963f 312b 9b3f
1.2144481 1.1580504 1.2543303 1.0488858 1.1872859 1.2164797 1.1575193 1.1706275
1.2092388 1.1429788 1.1006416 1.1403333 1.2421173 1.1460189 1.536917 1.1353129
1.1481416 1.2997267 1.2078228 1.1477368 1.067423 1.120797 1.1660542 1.1612884
1.2351002 1.2748562 1.1948663 1.1164243 1.662503 1.1714025 1.1117321 1.1817504
1.2452042 1.1504748 1.1945329 1.1933448 1.1609656 1.245972 1.439959 1.1724348
1.0886916 1.1298112 1.1460419 1.1875101 1.3190768 1.2664286 1.1825932 1.1626045
1.2635086 1.1603788 1.0593072 1.1781235 1.3618107 1.2683555 1.1784738 1.2731819
1.2383953 1.2448202 1.3912376 1.2622335 1.1419996 1.1575984 1.202778 1.2486327
1.142903 1.2616813 1.2069932 1.0646946 1.1540638 1.0948718 1.195242 1.1208737
1.2730318 1.207512 1.1494669 1.2233709 1.1153135 1.2052963 1.2431719 1.2018727
1.1377676 1.190828 1.2014105 1.1701795 1.2498844 1.1708505 1.2524332 1.2110139
1.0825329 1.3083454 1.1931055 1.4155693 1.06505 1.2543195 1.211773 1.2404523
1.2347479 1.111094 1.1671818 1.2166276 1.2853879 1.1768249 1.2999992 1.1007395
1.1758244 1.2622756 1.2299428 1.1285034 1.1302768 1.3120878 1.1993655 1.1814035
1.119338 1.1131189 1.1751885 1.0752584 1.2971283 1.1497021 1.1640642 1.2253321
1.1754172 1.0785526 1.1964978 1.1770341 1.2660711 1.1268998 1.2248553 1.1825304
1.3837448 1.2396934 1.1859815 1.1879141 1.1146408 1.1318544 1.2530403 1.7471448
1.1212198 1.0721562 1.1834964 1.1343037 1.1770858 1.1982828 1.2668004 1.153012
1.328492 1.1894257 1.2091343 1.2628999 1.1960946 1.1394261 1.1634504 1.3532878
1.2274209 1.4161885 1.1794193 1.2122556

bn1.bias f4 [156]
00000000: 6381 f33c b017 2f3d f2fd 20bd 0c70 83bb
00000010: 3212 c03c 7557 4fbd 4ea1 683d cb9a 87bd
00000020: 1edc bdbd bf9a b33d fdb5 5f3c 65c3 543c
00000030: 1c17 c9bc e1f9 febd 9cd5 d5bd 5e7e c8bd
00000040: 5357 423d 3619 723c 9fcc 00bc d193 1cbd
00000050: 19c3 e9bd 99fd 0bbe b342 7d3c bc3f b43a
00000060: 9f19 fe3d 01f0 5ebb 6e6e 123d 7360 4dbd
00000070: 5984 0a3d 6e39 beb8 030f f5bc 7b1a 02be
00000080: 538b c7bd 1d76 063e 326d 6d3a 3ab2 07be
00000090: 2904 303c 8083 103d 5d8a d73d 9cf1 c6bc
000000a0: 90ef c3bd 7e27 89bd 1e99 a9bd 84d4 dabd
000000b0: b076 413d 864c 863d 5ba9 6dbc b3bd 09bb
000000c0: d1cf 36bd 4c16 85bd f20b 1fbe 7684 073c
000000d0: 1a9e 9ebc 0fb4 313c 20b5 06bd b5fb f0bb
000000e0: 9fb9 17be 2a98 9f3d 3925 bebd 9c09 9bbb
000000f0: 9a6d a43c 0775 d53d 3056 b2bb ea6d 0e3d
00000100: b54d 54bd 2cfb 8a3d 0474 b93d 9f9e 2cbe
00000110: a4ee 20bd bd07 36bd d74b e7bc 7b2a aebc
00000120: 0eae debd 6538 15bd 45be d6bc d8a7 e13b
00000130: 739e 6bbd 1aa2 51bc 2397 8cbd bd07 b8bd
00000140: cc99 a9bd 2a81 533d e9c1 2a3d b040 afbd
00000150: 8043 c239 d532 923d ac2a 9c3d 44b1 503b
00000160: 6f0c d7bd 10dc 0fbd 8de3 91bc c027 af3d
00000170: b2f5 09bd 1120 7b3a 720e 9bbd 79cd df3b
00000180: d55f 0cbc 83a2 d8bd 9c5f 06bd e12e a5bc
00000190: 5689 1c3c 4b86 2a3d dc09 adbd 1c2a 44bd
000001a0: 9d2a 243e 2014 81bc bd8d 94bd 0870 cb3c
000001b0: 1bd8 67bd 8b6a fcbd a494 0f3c 10b7 c6bd
000001c0: b388 57ba e5eb bfbc 8583 513d 033f 92bd
000001d0: 745e 273d e05c a8bd 6384 55bd 5e2e 5ebe
000001e0: 356d 1a3d d244 e5bd 8ed0 bebc 40d5 f7bb
000001f0: 6aeb 893d fe37 dfbc 7bb5 3cbe 98d9 ddbc
00000200: f823 0c3e 00ef ddbd 34d4 0dbd 42f9 11bd
00000210: d97b d6bd 9624 e0bd 46b4 9bbd 8d55 20bc
00000220: 0b67 dcbc 7b68 89bd b025 c6bd 3396 afbd
00000230: db9b 7abd 533b d03c 1488 483d cdd9 10be
00000240: a200 21bd afd3 353a 97e0 51bd 950a d0bd
00000250: 4aba ecbd 32d4 c6bd 5ad7 a4bd 566b 9d3b
00000260: 6be9 8fbd 2317 d4bd 2bde 413c 8e71 d4bc
0.029724782 0.0427472 -0.03930468 -0.0040111598 0.023446176 -0.050620515 0.056794457 -0.06621321
-0.092705 0.0876975 0.013654229 0.012986039 -0.024547152 -0.12450004 -0.104411334 -0.09789728
0.04744656 0.014776519 -0.0078612855 -0.038226906 -0.11414165 -0.13670959 0.015457797 0.0013751904
0.124072306 -0.0034017565 0.035749845 -0.05014081 0.033817623 -9.070603e-05 -0.029914385 -0.12705414
-0.09743371 0.13130994 0.0009057104 -0.13251582 0.010743179 0.03528166 0.105244376 -0.02428513
-0.09567177 -0.06696986 -0.08281158 -0.106850654 0.04723233 0.065575644 -0.0145057095 -0.002101761
-0.044631783 -0.064983934 -0.155319 0.008271327 -0.019362498 0.010846152 -0.032887578 -0.0073542246
-0.14816903 0.07792695 -0.092844434 -0.00473137 0.020071793 0.10422712 -0.0054424033 0.03477279
-0.05183192 0.067861885 0.09055331 -0.16857384 -0.039290085 -0.044440974 -0.028234405 -0.02126049
-0.10873042 -0.036430735 -0.026213774 0.0068864636 -0.057524156 -0.012794996 -0.068647645 -0.08985851
-0.082812876 0.051636852 0.041688833 -0.0855726 0.00037052855 0.07138602 0.076253265 0.003184394
-0.105004184 -0.035121977 -0.0178087 0.085525036 -0.03368158 0.00095796684 -0.075711146 0.006829914
-0.00856777 -0.10577872 -0.032806024 -0.020163955 0.009554228 0.041631978 -0.08449146 -0.04789172
0.1603188 -0.015756667 -0.07253597 0.024833694 -0.05660258 -0.12325009 0.008763466 -0.09702885
-0.0008221969 -0.023427913 0.051150817 -0.07140925 0.040861562 -0.082208395 -0.052128207 -0.21697375
0.037701804 -0.11194767 -0.023292806 -0.007563263 0.06734355 -0.027248379 -0.18428604 -0.027081296
0.13685596 -0.10836601 -0.0346262 -0.0356381 -0.10472841 -0.10944478 -0.07602744 -0.009786022
-0.026904603 -0.06709381 -0.09675157 -0.0857357 -0.06118379 0.025418913 0.0489579 -0.14145584
-0.039307244 0.00069361454 -0.051239576 -0.10158268 -0.11558969 -0.09708442 -0.080488876 0.004804055
-0.07026943 -0.103559755 0.011832754 -0.025933053

bn1.running_mean f4 [156]
00000000: 07fb c13f f4fd 613f 1421 cb3e 157c 113c
00000010: 5e73 983f ba0f 5a3e f358 0a40 13db 6f3e
00000020: cbaf 0540 e350 ae3e d1ef bf3f be7f b03e
00000030: 73f7 5b3d 75fc 163f 33e8 893f f7aa cc3f
00000040: ebf7 5e3c 5907 c93e 60e6 0d3f c7de ae3e
00000050: 31f0 193d 0db2 dd3e fd59 9d3d 34b8 003f
00000060: e96b ea3e 8139 b93d 81cd 833f c6fe 2f3f
00000070: 4f00 7b3e efa6 113d 4879 213f 6462 113e
00000080: e46c bd3f 21b9 613f d8de 573f e4a1 a03f
00000090: c67c b23f cd6a 3b3e ae5c d93d 77a1 2d3f
000000a0: e490 de3e eef1 433d 0e9f 9e3f 9a97 b63c
000000b0: aa11 cf3d 5e51 953a 024b 4e3f fc0b 0a3f
000000c0: 75f1 923f 619c db3f 2663 023d ca15 463e
000000d0: 3e1c 4a3e d0d6 3f3e f58f e83e 1316 ec3f
000000e0: da21 8e3e e584 a23f 881e 5c3f a21e d83f
000000f0: 20ad 243d 64e5 983b 0be1 f03f 25d0 1c40
00000100: 66ce e53f 5b55 913f 7d65 cb3e 62ba 7e3f
00000110: 9e8f 823e d535 e63d 5910 2c3c f4e1 5f3e
00000120: 3b59 b53e a984 d03e f5a5 c13f fdc6 bb3d
00000130: 374c 873e 8eb9 ed3d 9f64 463e 7239 0940
00000140: 7036 3c3e 4c42 b63e 3e1b 8b3f 1764 c33e
00000150: 5fc6 e03e 31fb e13e 94d1 8d3f acbc a93f
00000160: 0400 0000 f896 4e3f 9c8d 1b3f 73ab a83e
00000170: d2c9 4d3f b992 523e 9377 7b3f d6ae 0b3e
00000180: 0114 e43b 1622 1240 c2d2 c83e c198 823e
00000190: 713d e73e cb6d 1d3f bb7c b03d 5927 953c
000001a0: 697c 463f d873 273f 1aeb 543f 5d37 7b3f
000001b0: 2093 483e 0793 313d 8197 653f 7d4b 123e
000001c0: bcf7 0c3f d851 1e3f 4968 0e3f 190c 823e
000001d0: 9a3a 483f 26d8 133d 988a 0040 92a1 cc3f
000001e0: 27a0 e43e 2e7d 373d 0f19 0c3e 48f8 223f
000001f0: 11a4 813f 0daa 3a3f 2d3f 303f f767 643d
00000200: 4a8e 413e f123 b23f bd2a 883f 0400 0000
00000210: e78b 5e3c 731c 8e3e a451 813d c6ef 933f
00000220: e497 803f f914 153f dbed 993e 2565 cb3d
00000230: 059c 2d3f 7a9a 903d 36d4 163f 18cb c03f
00000240: 281a 2c3e 6cf9 253e b042 0f3f 5df7 993e
00000250: 02e6 b83d eb26 403f 0400 0000 3d85 ae3c
00000260: 7b5e 963f a4eb 793c e011 173e 9cda c93e
1.5154732 0.88278127 0.39673674 0.008879681 1.1910207 0.21295062 2.161679 0.23423414
2.0888546 0.34046087 1.4995061 0.3447246 0.053702783 0.5897897 1.0773987 1.5989674
0.013608913 0.39263418 0.5542965 0.3415434 0.03758258 0.43299904 0.076831795 0.5028107
0.45785454 0.09044171 1.029709 0.6874813 0.24511836 0.03555959 0.63075686 0.1419769
1.4798856 0.8817311 0.8432441 1.2549405 1.3944328 0.1830246 0.1061338 0.678245
0.43469918 0.047838144 1.239229 0.022289086 0.10110791 0.0011392047 0.805832 0.53924537
1.1479937 1.7157098 0.031832837 0.1934425 0.19737336 0.18734288 0.4542233 1.8444237
0.27760202 1.2696806 0.85984087 1.6884348 0.040204167 0.0046660174 1.8818678 2.4502041
1.7953613 1.1354173 0.39725867 0.9950315 0.25500196 0.112407364 0.010501944 0.21863538
0.3541964 0.40726212 1.5128771 0.091688134 0.26425335 0.116076574 0.19374321 2.1441312
0.18380141 0.35597456 1.0867689 0.381623 0.43901345 0.44136956 1.1079583 1.3260703
6e-45 0.8069911 0.60762954 0.32943305 0.8038608 0.20563783 0.9822933 0.13640913
0.0069603925 2.2833304 0.39223295 0.25507167 0.45164064 0.61495656 0.086175404 0.018207239
0.77533585 0.6541114 0.83171237 0.9813135 0.19587374 0.043353107 0.896843 0.14286609
0.5506551 0.61843634 0.55627877 0.25399855 0.7821442 0.036094807 2.008459 1.5986807
0.44653437 0.044797115 0.13681434 0.636601 1.0128194 0.72915727 0.688464 0.05576321
0.18901935 1.3917218 1.0638043 6e-45 0.01358316 0.2775608 0.063144 1.1557548
1.0046353 0.58235127 0.30064282 0.09931401 0.6781619 0.07060714 0.5891756 1.5061979
0.16806853 0.16208428 0.5596113 0.30071536 0.090282455 0.75059384 6e-45 0.021303767
1.1747583 0.015253935 0.14752913 0.39424598

bn1.running_var f4 [156]
00000000: 519d f63f a462 953f 9be6 1c3f 1e0e e73b
00000010: 6d52 0040 6147 273e 2ee2 be40 d9d6 8d3e
00000020: 73ab f040 d1e1 423f 9ad3 4f40 2b16 403f
00000030: 6bc0 183d a602 193f 13d8 263f 5e9e 3840
00000040: f7f1 a73b 9cb5 ae3e d18e 783f 4310 333f
00000050: 0a11 643d c5c5 8a3f 1e36 db3d 10f5 f53e
00000060: 4c8e 0b3f c1c6 5c3d df84 3540 27ae 0c40
00000070: dce7 a13d c55b ff3c 2e7f e43f 76bc 923e
00000080: c8c8 883f e1f6 cd3f 8abf ea3f 6563 4440
00000090: 949a 6340 adc1 963e 6856 203e 9017 8a3f
000000a0: ea19 533f c4bb 2d3d ac1d f03f 6b6f f43c
000000b0: 3ac1 f13d 0dd4 0a3a f8fc a23f bc84 953f
000000c0: 62eb a33f 4910 6140 6b45 a83c 257a bc3e
000000d0: 5c8c bf3d 5b6d 553e d33e 493f fd0c f73f
000000e0: cd0d 993e 3755 1040 b8b7 983f 0ca6 813f
000000f0: 32f8 1e3d 0222 3a3b 302c a83f 3066 8440
00000100: ef97 8440 5f00 d33f bb1b 7c3f b8d1 f93f
00000110: 0f0c 8e3e 9e28 283e 634a 003c bc22 8e3e
00000120: 0f11 273f 377f 183f a085 0940 473b f73d
00000130: 228e fb3e 390f 483e d44e 553e db5e ac40
00000140: 0222 873e aa8d 4b3f dfef 2940 233b 623f
00000150: b8ee 983f d999 2c3f ceb3 4540 a89b 4940
00000160: 0400 0000 8fbf 993f 8c64 7b3f 96c6 2c3e
00000170: 5ac6 1d40 f4a3 2b3e 749c 473f c9d4 0c3e
00000180: d37e 083c 9ec9 2b41 a8cd 073f 4666 c43e
00000190: 9250 763f 03bd 5c3f ce07 143e 3541 713c
000001a0: 5480 ee3f c613 703f f7e4 bd3f 313c 1e40
000001b0: 8dc4 a23e 23c2 d13c 826e 1740 7bda 1d3e
000001c0: 3bc4 873f 3344 823f 9575 293f cdd8 a53e
000001d0: d8df bd3f 7d28 db3c d91d b240 296d 5440
000001e0: f10b 513f 834f 3d3d f64f b93d 00fa a93f
000001f0: e5a9 f73e 3a0a e43f 8a7b 0e3f ca2f 563d
00000200: 31f2 a83d a402 4740 ecdc 773f 0400 0000
00000210: c37b 5b3c fb72 bd3e 7349 833d 66e2 be3e
00000220: c194 ec3f 1703 de3f 7728 373f 52f6 063e
00000230: 72e4 d33f 69da ca3d b179 813f 3d45 803f
00000240: a297 1e3e 58c5 853e 7da0 5c3f c90c b53e
00000250: 9a06 2c3e 6e7a dc3f 0400 0000 9ff4 bd3c
00000260: d1d8 0340 bc0a a73c 6b7d 463e b709 393f
1.9266759 1.1670728 0.61289376 0.0070512434 2.0050309 0.16335823 5.96511 0.27702978
7.520929 0.7612582 3.2472901 0.75033826 0.03729288 0.59769666 0.65173453 2.884666
0.00512528 0.34122932 0.9709292 0.6994669 0.055680312 1.0841604 0.107036814 0.4803853
0.54514 0.053900484 2.8362348 2.1981294 0.07905552 0.031171689 1.7851312 0.2865941
1.0686274 1.6090966 1.8339703 3.0685666 3.5563097 0.29444638 0.15657961 1.0788441
0.82461417 0.042415395 1.8759055 0.029838284 0.11804433 0.000529588 1.273345 1.1681132
1.2806208 3.516619 0.020540914 0.3681194 0.09352943 0.20842497 0.7861149 1.9300839
0.29893342 2.255201 1.1931067 1.0128798 0.038810916 0.0028401618 1.3138485 4.137474
4.1435466 1.6484488 0.98479813 1.9517126 0.27743575 0.16421744 0.007830235 0.27760875
0.65260404 0.59569114 2.1487808 0.12071853 0.49131876 0.19537057 0.20830852 5.386579
0.26393133 0.7951304 2.6552656 0.88371485 1.1947851 0.6742225 3.0890994 3.1501255
6e-45 1.2011584 0.982003 0.1687263 2.4652314 0.16761762 0.77973104 0.13753046
0.0083310185 10.736723 0.5304818 0.38359278 0.9621669 0.8622591 0.14456102 0.014725019
1.8632913 0.9378017 1.48355 2.4724238 0.3179058 0.025605267 2.3661199 0.15415375
1.060676 1.0177063 0.6619504 0.32391968 1.4833937 0.026752705 5.5661435 3.3191626
0.81658846 0.046218406 0.090484545 1.3279419 0.48371807 1.7815621 0.55657256 0.05229167
0.08249319 3.1095362 0.96821475 6e-45 0.013396206 0.37001786 0.06410494 0.37282103
1.8482896 1.7344693 0.7154612 0.13179901 1.6554091 0.0990494 1.0115262 1.002113
0.15487531 0.26127124 0.86182386 0.35361317 0.16799393 1.7224863 6e-45 0.023187933
2.0601084 0.02039086 0.1938378 0.7228045

fc1.weight f4 [156, 24]
00000000: 4542 aabc 89a3 dc3d 6196 edbc 5520 5b3d
00000010: 4d82 f53d 9b8d d23d fb0e 093d eb89 0c3d
00000020: aad3 a9bd 7267 f93d bbc6 66ba 7d61 edbd
00000030: 8384 aa3c 12da 503e cd39 603c 7e72 c6bd
00000040: 8de0 2b3d 8337 133d c334 81bd 0668 8abd
00000050: efee 873c 708b 073d 5f2a 373b 3692 b0bd
00000060: d340 1fbd 033f 06be b9b8 a2bc 4dd2 2cbd
00000070: b5e2 25bd 65d6 413e 7e90 ddbb 0244 163b
00000080: 1a4c a83d f187 bebd cd0f 3abd b8e2 923b
00000090: e9ca 74bd bbad 563e cd85 a53b b1df e43c
000000a0: 9221 933d 72d4 04be 4c70 14bc cdf3 ab3d
000000b0: 85b8 e43b 94e8 bb3d b2a6 3b3c 5989 9bbc
000000c0: 5dfd 80bc 8796 fd3d 26fe 87bc 277a 133d
000000d0: c3f2 1cbc fb2a 8d3d dd6f c138 08f8 68bd
000000e0: 345c d83c 0d2a 323e e6c4 c33c 5ce0 e9bd
000000f0: 5b98 46bd 977d 933d f62f 28bd 2c16 82bd
00000100: c892 f13d cf56 fc3d c144 7c38 2e01 a9bd
00000110: c472 f0bd edb4 663d d738 4dbc ac01 a7bd
00000120: d758 3b3e 75fa e73d 2fd3 50bc 66b6 67bd
00000130: 23ab 383b b6df d5bc 40ff e83b bd8f 663d
00000140: b311 4c3e c962 8e3d 07a8 abbd b8cb 433c
00000150: c490 bd3c 4ff7 b5bd df23 913d 322b 8cbc
00000160: de1b 1e3d a556 313d 535a 1dbb 8cd9 f8bd
00000170: 9f4f 4d3d d816 58bd fa99 3abd f055 3cbd
00000180: d702 d43c 5d1d 55bd 3a13 24bc 8774 193d
00000190: 7b14 aebd d433 123e bce5 f43b 3cb5 e2bc
000001a0: d02f 18bd 23ce cc3b a68e 383d 5000 08bc
000001b0: c653 c1bd b702 163e 298d 7abd 0b6f 8b3b
000001c0: 29e6 ab3d 6a05 453d 6cf0 953c 76cc 7b3d
000001d0: 5b20 1ebe 5d11 903d ab91 1dbd c916 bd3d
000001e0: 09fb e13c b2ec 83bc 1ec7 e5bc 49a1 8abc
000001f0: 17f8 793b 4a66 223e e136 a73c b478 013d
00000200: c316 993d 9310 0b3d 93db d73c 874e 94bd
00000210: 16e7 c7bd 9d0e e33d 2634 e0bc 0ab6 093c
00000220: 8af7 023e 085c 54bb 1db1 17bc d24a 463d
00000230: 817a 80bd 6bca bc3d 243d 843c f9af 2c3b
00000240: 87e6 dfbc f31e 203d 7939 963d 72c9 c1bd
00000250: 284a 8cbd c7b5 2a3e 8db5 b33b d09d 483d
00000260: cf2e 88bd 5e74 0cbd a109 003d a015 f1bd
00000270: 85bd 95bd bd2b c7bd bb6b ab3d 6f33 25bd
00000280: d034 643d e511 7abd 57a9 cb3c f269 02bd
00000290: 0ee7 8c3d 297d 04bd 2867 dfbc 623b 7fbc
000002a0: b9f8 953d d078 86bd b471 243d af5f 9f3d
000002b0: b10a 8dbd 51d0 0bbd bd25 30bd 6313 29bd
000002c0: 4da8 873d f199 663c 2a59 063d 3664 d53d
000002d0: 2d26 c5bc 9209 32be 7438 a0bc 084c d53d
000002e0: f5bf 8b3d 5968 02bd f317 f3ba c134 2a3d
000002f0: 96da 99bd 83cb af3d a42c 773d 2b58 af3d
00000300: a8f5 123e 0b4b 7f3d 36a7 563d 6906 563c
00000310: 5759 d13d 2422 693d c246 8abc e72a 81bd
00000320: 8cc9 e13b 99ac 12bd 2a26 01bd 9335 563d
00000330: cb81 1bbc 7c38 a33c b813 3c3d 349e 8abb
00000340: 4722 9ebc 1963 03bd d7a8 a73d 525b 623d
00000350: 6df0 613b 5adf a8bc 444f e53d e110 b2bc
00000360: 4d6a c9bc d978 b83b 022e 923d 519f 313d
00000370: 3a6c 723b 6782 4bba 9eb1 95bd 0c2e 03bc
00000380: 7702 a13c 3fc2 dd3c 62e1 f0bc e963 363d
00000390: 68cf 9abd c69f 03be 20f5 f23c 6991 8ebd
000003a0: 380a f93d 66c1 e0bd 70e4 1f3d 1192 b3bd
000003b0: d1f8 03be 9083 6ebd d3b9 373b 21b6 0fbe
000003c0: 266e 76bd 409c f23d 0aae a13d f93b 2c3d
000003d0: 979a 7b3d 1b13 acbd ecdf d83d 5216 c5bd
000003e0: 175d 2cbc d541 2d3e bede d03b 27c7 d0bc
000003f0: 07cc 2abd ebd6 05be 7b58 68bd 017c 8a3d
-0.020783553 0.10773379 -0.02900237 0.05349763 0.119877435 0.10280915 0.033461552 0.034311216
-0.08292325 0.12177934 -0.0008803417 -0.1159086 0.02081514 0.20395687 0.013685656 -0.096898064
0.041962195 0.035941612 -0.063088916 -0.06758122 0.016593425 0.033091962 0.002794884 -0.086216375
-0.03888018 -0.13109975 -0.019863473 -0.042192746 -0.040499408 0.18929441 -0.0067616096 0.002292872
0.0821764 -0.093032725 -0.045425225 0.0044825934 -0.059763823 0.2096471 0.0050513507 0.027938696
0.071841374 -0.12971666 -0.009059977 0.08396111 0.0069800043 0.0917522 0.0114533175 -0.01898639
-0.015745813 0.123822264 -0.01660068 0.036005165 -0.009579363 0.068929635 9.223793e-05 -0.056877166
0.026411153 0.17398854 0.0238976 -0.11419746 -0.04848514 0.07201689 -0.041061364 -0.06351885
0.117955744 0.12321245 6.0145514e-05 -0.08252178 -0.1174064 0.056324888 -0.012525759 -0.08154616
0.18295608 0.11327068 -0.012745663 -0.056570433 0.0028178177 -0.02610765 0.0071105063 0.056289423
0.19928627 0.069524355 -0.08381658 0.011950426 0.023140319 -0.08885061 0.0708692 -0.01711044
0.038600795 0.04329552 -0.0024010136 -0.12150869 0.05012476 -0.05275616 -0.045557 -0.045980394
0.02588026 -0.052029956 -0.01001435 0.037464645 -0.085 0.14277583 0.0074736755 -0.02767431
-0.037154973 0.0062501593 0.045057915 -0.008300856 -0.09439807 0.14649473 -0.061169777 0.0042551807
0.08393509 0.048100866 0.018303119 0.061474286 -0.1544203 0.07034562 -0.038468998 0.092328615
0.027585523 -0.016104076 -0.028049048 -0.01692261 0.0038142258 0.15859333 0.02041191 0.031609252
0.074750446 0.033951353 0.026349818 -0.072415404 -0.09760873 0.11086772 -0.027368616 0.008405218
0.12789741 -0.0032403488 -0.009258536 0.048411198 -0.06273366 0.09218296 0.016142435 0.0026350005
-0.027331604 0.039092015 0.07335181 -0.09462251 -0.06850082 0.16670905 0.005484289 0.048978627
-0.06649553 -0.034290664 0.031259183 -0.11771703 -0.073115386 -0.09725139 0.08370157 -0.040332254
0.05571443 -0.06105222 0.024861021 -0.03183932 0.06880008 -0.032345925 -0.027270868 -0.015578123
0.07322831 -0.06566012 0.0401475 0.07781922 -0.06886805 -0.034134213 -0.04300474 -0.041278254
0.06623898 0.014074788 0.032799877 0.10419504 -0.024066055 -0.17386463 -0.019558169 0.104148924
0.06823722 -0.031837795 -0.0018546566 0.041554216 -0.07512395 0.08583739 0.060345307 0.085617386
0.14351523 0.062327426 0.05240556 0.013063052 0.10222118 0.056917325 -0.016879443 -0.06307011
0.0068904813 -0.035809133 -0.031530537 0.052297186 -0.009491394 0.019924395 0.045917243 -0.004230285
-0.019303454 -0.03207693 0.081865005 0.05526287 0.003447558 -0.020614315 0.11196759 -0.021736564
-0.024586821 0.0056296405 0.071376815 0.043364827 0.0036990778 -0.0007763267 -0.073092684 -0.008006584
0.019654496 0.027070163 -0.029404346 0.044528875 -0.07559091 -0.12853917 0.0296579 -0.069613285
0.12160152 -0.10974388 0.039036214 -0.08768094 -0.12887885 -0.058230937 0.0028034344 -0.1403432
-0.06016364 0.118462086 0.078945234 0.042049382 0.061426725 -0.084020816 0.10589585 -0.09623398
-0.010520241 0.16919644 0.006374209 -0.025485588 -0.041698482 -0.13070266 -0.056725007 0.06761933

fc1.bias f4 [156]
00000000: 9b0d fcbd 5a81 70be d42d 82bc 57a2 44be
00000010: 7641 25be 9297 97be 16bb aa3b 4986 8abc
00000020: 092b 65bd f979 103e b0cb 1bbe 0b28 a43d
00000030: 3b3d ae3d a0e2 6a3c 1021 42be c85c 84bd
00000040: affe 30be 5da4 873d a0d0 f2bc feaf d83c
00000050: 1abb 363d 318f 17bd e530 45be df59 b2bc
00000060: 7569 ef3d ad12 6abe 7ecd 48be bcb2 e0bd
00000070: d244 a7be 8cc1 1fbe 8bb6 c23d 3b9c cebc
00000080: 5339 b0be 32bf 273c f8cb cbbd b884 5fbe
00000090: 75af ddbd 0cd5 193d 0b39 82be 3bff c33d
000000a0: 04de 59be d53b 66be 93ef c4bd 7843 8fbe
000000b0: ba81 703d 0c63 073e 76b3 3e3e 782b 1ebe
000000c0: 8f66 80be 9166 8b3d a04d 12be 2647 a33c
000000d0: 1184 1bbe 8302 853b 7254 83be 1b23 563c
000000e0: fad8 12be 3d55 0f3e 0b14 35be f0bf 84be
000000f0: b6d0 e6bd 3afe 083e 9aef 9ebe 09cd 563c
00000100: 6113 8bbc 4942 64bc 44aa cfbd 685b 2bbd
00000110: da7e 8dbe 3c5c 4fbe 1f9c f63d 19b2 86bd
00000120: 163a 28be aed5 5ebe 54ee 69bb 39da 5dbe
00000130: 4330 debc de27 883d 1dc8 8dbe ae52 c53d
00000140: 9429 ccbd 7643 4abe a416 70be 8780 743d
00000150: 471d f9bd 76b7 ac3c e162 7dbc fc55 2c3d
00000160: 5762 87be eab2 d83d 066a 72be 5574 91be
00000170: 913c 053e 3ce3 80bc 4d08 f6bd 739e 92bd
00000180: 495c 8cbe 954f 43be 549f f2bd e663 973c
00000190: d6d2 a1bd 466d a6bd ab34 01be 3687 cf3d
000001a0: ddbc 333d 18dd d5bd 6b8d e3bd c374 9dbd
000001b0: db01 92bd 0455 993c 11e3 8d3d 0f71 a5bd
000001c0: ccc3 3bbd d0fd d9bd 2adb c73d 8306 f1bc
000001d0: a217 243c 7bab 41bc 5ecd 13be 51b0 92bd
000001e0: 45e6 2ebe e8d4 bc3c 030d cc3d 54d9 88bc
000001f0: dc8e e33d 2583 4cbe c705 4b3e 0ba6 52bd
00000200: d502 5f3d 4165 2a3e 60f2 6bbe b145 f93c
00000210: 032b 233e 1b42 86be 9562 c8bd bd6e 7fbe
00000220: 4558 943c 4372 d4bd 3e53 c73d f01c 94bd
00000230: 1056 96be 774a 893d 652b 203e b077 e4bc
00000240: 6307 a33d 160a d23d 5dce 38be 522e 03be
00000250: 2a14 fbbc 2bbe 11bd a554 32be 2f78 f6bd
00000260: 8ff1 54bd 9655 983d 0680 8cbd b3f7 81bd
-0.123072825 -0.23486844 -0.015890993 -0.19202553 -0.16138253 -0.29607826 0.0052102907 -0.016909735
-0.055949245 0.14109029 -0.1521442 0.0801545 0.085077725 0.014336258 -0.18957925 -0.06463009
-0.17284654 0.06623147 -0.029640496 0.026451107 0.044612028 -0.037001792 -0.19256933 -0.02177137
0.11690036 -0.22858687 -0.19609639 -0.10971591 -0.32669693 -0.15601176 0.095074736 -0.02522098
-0.34418735 0.010238456 -0.09951013 -0.21827972 -0.108244814 0.037556693 -0.25434145 0.09570166
-0.21276098 -0.22483762 -0.09616008 -0.27981162 0.058717467 0.13221377 0.18623146 -0.1544627
-0.25078246 0.06806672 -0.14287424 0.019931387 -0.15187098 0.0040591373 -0.25650364 0.013069893
-0.14340582 0.1399736 -0.17683427 -0.25927687 -0.11270277 0.1337823 -0.31042176 0.013110408
-0.016977014 -0.013931819 -0.101398975 -0.04183522 -0.27635843 -0.20250028 0.120414965 -0.06576938
-0.16428408 -0.217612 -0.0035695033 -0.21665277 -0.027122622 0.06648229 -0.27691737 0.096349105
-0.09968868 -0.19752297 -0.23446137 0.059692886 -0.12163787 0.021083575 -0.015465469 0.04207419
-0.26442215 0.10581 -0.23673257 -0.28409067 0.13011386 -0.015733354 -0.12013302 -0.07159128
-0.27414158 -0.19073327 -0.11846796 0.018480252 -0.07901542 -0.08126311 -0.12617747 0.10133211
0.043881286 -0.10442561 -0.11110958 -0.07688286 -0.0712926 0.018717296 0.06928075 -0.08078205
-0.045841023 -0.10644114 0.09758599 -0.02942205 0.0100154 -0.011820669 -0.1443381 -0.07162536
-0.17080028 0.02305074 0.09963419 -0.016705193 0.11111233 -0.19971903 0.19826423 -0.051427882
0.05444606 0.16640188 -0.23041677 0.03042874 0.15934376 -0.2622231 -0.09784428 -0.24944587
0.018108496 -0.10373356 0.09732674 -0.07232082 -0.29362535 0.06703656 0.15641554 -0.027889103
0.07960393 0.1025583 -0.18047471 -0.12810639 -0.030649263 -0.03558175 -0.17415102 -0.12034642
-0.05198818 0.07438199 -0.06860356 -0.06346073

fc2.weight f4 [156, 156]
00000000: 1e2a 99bd c0b4 83bc b293 abbc ad2d 633d
00000010: 8726 9c3d f4ef 383d fd2b c33c d96c ca3d
00000020: 32f2 e3bc ed65 b43d 6b33 24bd 1cfc 8bbd
00000030: 89d5 87be 9fa5 fcbc 844b 34bc 731e 9c3d
00000040: 166d 8a3d cdea 08be 3f13 753b 98c6 3fbe
00000050: ee80 bc3a 3e49 953d d317 093d e27f de3d
00000060: f413 27bc 04f0 88bd b4ee 79be 6e6e 9a3d
00000070: e0c2 5abe 6fb7 533d 7935 17bd d44f bd3d
00000080: 2f39 29be 417a b63c f274 eebc e694 323d
00000090: d810 c03c 01c1 7f3d db28 0cbe 7b76 f4bb
000000a0: bc82 923d d47a bbbc 2a72 163e 47ff a4bc
000000b0: 9e02 00be 7c3a 1dbd 096e 45bd 7160 da3b
000000c0: 97bb 0abe 99e1 133d ad85 df3b 0715 98bc
000000d0: d065 88be 4ea1 a7bd 5a9f 8b3d 6309 22bd
000000e0: 2391 643d 4e66 85bb 771c bd3d 338a 46bc
000000f0: 0fca c0bd ea68 54bd b92a cd3d 5767 183c
00000100: 5bfe 59be 9566 b73b 7787 663d a107 1dbd
00000110: 114c 1a3e ec03 033c d92e 0e3c d986 85bd
00000120: 7875 913c 9728 d7bd 89ca 02be 728d 45bc
00000130: 2450 d73c cc43 d8bd d802 e13d cbcf 00be
00000140: 37d7 35bd 5386 fe3d 9d59 a13d cda4 4ebd
00000150: 2751 05bd 09b8 01bd 4e7a 433d 94cc f039
00000160: cde9 a53d e9e4 fc3d 790d a3bd cbec 823d
00000170: e506 fc3c 6b54 293d 0bbf c23c 8294 90bd
00000180: 57e5 ddbc 0e2d dc3d b28a a23d 131a 053e
00000190: 31d6 e93d cd06 213d fda3 4f3c cee1 a93d
000001a0: 3a49 57bc 5000 97bd dd04 cfbd 53e5 90bd
000001b0: 7aea 21be 3968 74bd 2d44 b8bc e712 593d
000001c0: e12a 41bd 5262 b63d 01e5 0abd 8bde dbbd
000001d0: 5f11 273c 4f80 e3bd 2aed b4bd 741f 0b3e
000001e0: 8872 983d f307 0a3c f8a2 c3bd 9153 23be
000001f0: 41c9 5a3e 6a3f c13b 9981 0e3b 1d5c 7f3c
00000200: 60a6 5dbc 7802 c03c 942a e2bd dfa5 96bd
00000210: ea45 33be 3706 0bbd 1694 853d 8be4 473e
00000220: 7a64 5abe 0ef2 a63d 76e8 86bd 82a2 11bd
00000230: c43a 963d 0ef1 5dbd 2d75 bdbd de6c 56bc
00000240: fcf6 d53d ed77 ffbd 3c8e 293e 9951 c93d
00000250: 91ab 1c3d a6ed 773d 8904 0c3d 6ff5 5d3a
00000260: 7581 b23d a4bf 7f3d 6bbe 8e3d 9f28 34bd
00000270: d12a 3fbd cb68 a83d d8a0 283d aec0 743c
00000280: 9be4 d8bc b5b1 8abb 9210 7fbd 4a92 26bd
00000290: f85b d93d 4337 2ebb 3803 ac3d cb79 20bd
000002a0: 5930 123e 15d5 cdbc 57dd c13d 2b68 2fbd
000002b0: 4ca6 0bbc a5b2 afbd 733c 8e3d cedb 04be
000002c0: 7379 98bd eefd a53d c683 55bb 0c00 033d
000002d0: 0b36 943d c231 c73b 33ce 83bd 8eec 9cbd
000002e0: 74ac 203d 213b 25bd 83be c33c bd18 ba3d
000002f0: c23e 273d c13a 903d 97b7 8a3d b92e d13d
00000300: bd4f 923d 4b29 31be d132 25bd 7105 de38
00000310: 533c 0c3d 55a8 f73d c87f 9ebb e6aa 753d
00000320: 57c6 6bbe f11e f5bc 3df9 a03d bb96 a4bd
00000330: e02d 1d3d 9044 8f3d cced 8abc 8f20 b2bd
00000340: 681d b7bc a08d b6bd 7390 60be 63be ce3d
00000350: 25b2 ac3d 8abc 3bbe 585e d5bd 3266 783d
00000360: 5232 d13c 2455 9bbd b7c2 a73c 9fd4 77bd
00000370: dddb 9f3d f311 c73c 6122 a33c 27af 733c
00000380: 2956 933d d9db 513d 565b 37bd 0d1c 903d
00000390: d245 4abc db20 af3d e4c2 9bbc aa79 55bc
000003a0: 7445 f4bc 5b18 b03d b436 e0bc e2dd dcbd
000003b0: 393e 95bc 5d7d 04bd 8040 e1bd 3773 3c3d
000003c0: f22a 203c fb69 90bd 2ee1 6cbd ddcc 40bd
000003d0: 84fd 2b3c 2409 633c 4dac bdbd 27d5 4b3d
000003e0: 3a45 a93c 893a 09be f0fe 613d 6557 ea3d
000003f0: cd2e f73c 4030 813d 766b 79be adc0 1dbc
-0.07478736 -0.0160774 -0.02094445 0.05546348 0.07624536 0.045150712 0.023824686 0.09884042
-0.027825449 0.08808503 -0.0400881 -0.068351954 -0.26530102 -0.030840693 -0.011004332 0.07622995
0.06759088 -0.1337082 0.0037395505 -0.18728101 0.0014381686 0.072893605 0.033469986 0.108642355
-0.010197628 -0.06686404 -0.24407464 0.07540594 -0.21363401 0.051688608 -0.03691623 0.09243742
-0.1652572 0.022275092 -0.029108498 0.043599032 0.023445532 0.062439922 -0.1368746 -0.007460413
0.07153842 -0.022885717 0.14691988 -0.020141257 -0.12500998 -0.038385853 -0.04820064 0.0066643287
-0.13548122 0.03610382 0.0068213553 -0.018564714 -0.26640177 -0.08185063 0.06817503 -0.039559733
0.055802476 -0.0040710336 0.09233945 -0.01211791 -0.094135396 -0.051857866 0.10017914 0.009301982
-0.21288435 0.0055969455 0.056281533 -0.038337354 0.1506808 0.0079965405 0.008678162 -0.06519861
0.017756209 -0.10505789 -0.12772574 -0.012057649 0.026283331 -0.10559806 0.109868705 -0.12579267
-0.044394698 0.12427964 0.078784205 -0.050450135 -0.032548096 -0.03166965 0.04772406 0.0004592879
0.081012346 0.12348349 -0.07961554 0.06392821 0.030765006 0.041340273 0.023772737 -0.070595756
-0.027086897 0.10750781 0.0793661 0.12998228 0.11417807 0.039313126 0.012673375 0.08295022
-0.013140017 -0.073731065 -0.101083495 -0.0707499 -0.15812102 -0.059669707 -0.022493446 0.052996542
-0.047160033 0.08905472 -0.0339098 -0.10735806 0.010197013 -0.11108457 -0.08834298 0.13586217
0.0744372 0.008424747 -0.09552568 -0.15949847 0.21365835 0.005897452 0.0021744727 0.015585926
-0.013528436 0.023438677 -0.110432774 -0.07355856 -0.17507139 -0.033941474 0.06522386 0.19520776
-0.21327391 0.08151637 -0.06587307 -0.03555537 0.073354274 -0.054184966 -0.09250865 -0.013087479
0.10447499 -0.12474046 0.16558164 0.09830017 0.038249556 0.060529374 0.034184013 0.00084670534
0.08716098 0.062438622 0.06969913 -0.04398405 -0.046671692 0.08223113 0.041169018 0.014938517
-0.026476195 -0.00423261 -0.062271662 -0.040666856 0.10613245 -0.0026583232 0.083990514 -0.03917865
0.14276256 -0.02512602 0.09466045 -0.04282395 -0.008523535 -0.085789956 0.069451235 -0.12974474
-0.074450396 0.08105074 -0.0032579764 0.031982467 0.072368704 0.0060789296 -0.06435814 -0.07662307
0.039226964 -0.040339593 0.023894554 0.0908675 0.040831335 0.070424564 0.06773298 0.1021399
0.07144115 -0.17300908 -0.040331665 0.000105867985 0.034237217 0.12092654 -0.00483701 0.059977435
-0.2302488 -0.02992198 0.078600384 -0.08036562 0.038373828 0.06995499 -0.016959094 -0.08697616
-0.02235289 -0.089137316 -0.21930103 0.10094907 0.08432416 -0.1833364 -0.10418385 0.060644336
0.02553669 -0.07584599 0.02047859 -0.060505506 0.078056075 0.024300551 0.019913854 0.014873303
0.07194168 0.051235054 -0.04476484 0.070366 -0.012345748 0.085511886 -0.01901383 -0.013029495
-0.029818274 0.085983954 -0.027369834 -0.10784508 -0.018218147 -0.03234612 -0.109986305 0.046008315
0.009775864 -0.07051464 -0.057831936 -0.047070373 0.010497455 0.01385716 -0.092613794 0.049763825
0.020662893 -0.13401236 0.055174768 0.114424504 0.030173684 0.06308031 -0.243574 -0.009628457

fc2.bias f4 [156]
00000000: b694 f03c 0c5a 1aba 1a57 a6bd 93e6 733d
00000010: d4aa 443d 0622 89bc f297 59bc 234f 9e3c
00000020: 06bc ab3d 48fd 63ba 94af b93d 15bf 6f3c
00000030: 5849 7f3d 6de9 853c 3c7d 193d 083b a23d
00000040: 3a4c 66bd d986 fdbd 6ff3 483c 7fa0 bcbc
00000050: f0fd 99bd e4c4 2a3d 1b3b 58bc f3a3 973c
00000060: 915c e63d bbe3 d3bb cfa6 243d d58e f6bc
00000070: 9cec 99bd 1ec6 8a3d a36b d33d 79ff c13d
00000080: 9d5b 933d 37a1 06bd 5089 4abb 1b25 63bd
00000090: d255 ea3d b3dc 3a3d bc45 c83c e6cb 013d
000000a0: f179 86bd d3cb 06be 278f 9e3d a2fe 23bd
000000b0: 9fc5 6f3d 7938 85bd acd3 903d 2cbc 933d
000000c0: 1fd4 3dbd 3b82 e6bd 048c a2bd 2c17 2cbd
000000d0: 3c95 f63d be11 f93c 04c3 3f3d 3d09 81bd
000000e0: d000 b33c 1479 0a3d 8c4d aebb cc38 353d
000000f0: 4479 043c 478b 743d b39a 60bd 5f23 80bc
00000100: 331f ce3c 8186 943d 73db 0dbd ab4d 8abd
00000110: 60cf d23d 94cd 1abe 26e2 9bbd 2e67 90bc
00000120: e2e8 023e cec7 0e3e 8bb8 bbbd 0758 97bd
00000130: 1399 3ebd a8ee 303c 6912 513d 16a8 203b
00000140: f815 b63c 8306 90bd 59a6 1b3d 631a 1e3c
00000150: 113b c73d 4864 6abd a7c8 453d 7c80 d43d
00000160: 71b9 12be 3535 843d f6d5 8cbc 1131 c33d
00000170: 987b 1fbe 1a81 453d 67c9 f63b a453 413c
00000180: c8e5 6dbc 739b 7a3d 31a3 953c 16a8 303d
00000190: 66e7 cbbd f508 b0bb 8bd6 493b 9d49 053d
000001a0: 0965 b0bc 9637 983c 7c04 6f3d fd2d 623c
000001b0: e76a 9439 b911 233e 82ad 473d acd1 1b3b
000001c0: a168 3e3c 36d6 25be ef5b 683d cf76 933d
000001d0: 27ea 39bd 66ee 90bc 7097 923d d6fe da3d
000001e0: dd46 953d ca5b 8a3d b379 95bd 55ea 32be
000001f0: 6896 20bd a309 14be 7315 0d3b fb8a 1abc
00000200: c09f 70bd cef6 273d e93b 4ebc 6556 c33d
00000210: 31e8 073e 1f3c 9b3d 9108 b53d f09c 65bd
00000220: a692 ac3c d54a b1bb 0cff ab3c e321 023e
00000230: 4e57 403c de9b 10bc f42e 453d 7e1e 7ebd
00000240: 7ab4 4d3c f0ef c8bc e37d 48bc bd92 803d
00000250: 372c 153d f3a2 39bd a54a 8ebd acc4 df3b
00000260: 0cad 9f3c 4bdc d43d 572f 70bd 4705 d73d
0.029367786 -0.0005888052 -0.08122082 0.059546065 0.048014477 -0.016739856 -0.0132808555 0.019324845
0.08385472 -0.00086971046 0.09066692 0.01463296 0.062325805 0.016346658 0.03747295 0.079214156
-0.05622504 -0.12379236 0.01226507 -0.02302575 -0.07519138 0.041691676 -0.013197686 0.018510794
0.112481244 -0.0064663566 0.040198144 -0.030097404 -0.07515833 0.06776069 0.103232644 0.09472556
0.07195208 -0.03286859 -0.0030904599 -0.05545531 0.1144215 0.04562063 0.024447314 0.031688593
-0.06566227 -0.1316369 0.07742148 -0.04003776 0.058538076 -0.06504912 0.07071623 0.07213625
-0.046344873 -0.11255308 -0.07936862 -0.042014286 0.12040183 0.030403968 0.04681684 -0.0630059
0.021850973 0.033806875 -0.005319303 0.04424362 0.008085553 0.059703138 -0.054835033 -0.015641866
0.025161361 0.07252217 -0.03463311 -0.06753095 0.1029346 -0.15117484 -0.07611494 -0.017627325
0.1278415 0.13943407 -0.09166058 -0.07389837 -0.0465327 0.010799088 0.051042948 0.002451425
0.022227272 -0.07032492 0.03800044 0.009649846 0.09728063 -0.057224542 0.04828706 0.10376069
-0.14328553 0.06455461 -0.017191868 0.09530843 -0.15574491 0.048218824 0.0075313332 0.011799727
-0.014520116 0.061183404 0.018266292 0.04312905 -0.09956245 -0.0053721615 0.0030798044 0.032540906
-0.021532552 0.018581193 0.058353886 0.01380491 0.00028308408 0.1592473 0.048749454 0.0023776097
0.011621625 -0.16194996 0.0567283 0.07200395 -0.04538932 -0.017691802 0.07157791 0.10693137
0.07288907 0.067557886 -0.07298603 -0.17472203 -0.03920594 -0.14456801 0.0021527677 -0.00943255
-0.0587461 0.041006856 -0.012587526 0.09537963 0.13272168 0.075798266 0.088395245 -0.05605787
0.021066021 -0.005410532 0.02099564 0.1270824 0.011739565 -0.008826224 0.04814048 -0.0620408
0.012555236 -0.024528474 -0.012237045 0.06277988 0.03641912 -0.045321416 -0.06947831 0.006828865
0.019491695 0.1039358 -0.058638897 0.104990534

fc3.weight f4 [2, 156]
00000000: f47a 4fbe 53cc 35be 75f6 4c3e 33b2 04bd
00000010: 5d06 5f3e c89c 2cbe 8a73 85be 9155 e03d
00000020: a316 47be 121b c23e 7c68 04be b5b0 a7bd
00000030: 3193 30bd db63 5b3d 01f8 b2bd 019e 833d
00000040: 4ad8 53bc 62c9 d73d d850 9bbe 1189 e9bc
00000050: 8698 173d 90e7 853d e51d 84be 3906 953d
00000060: d56a 4abe 05e5 62bd 57fb c3be dbac 69be
00000070: 63af 493e a5d1 39bd 3e1f fd3d 8151 0ebd
00000080: 4682 0dbe 00b5 1dbe 3b67 fa3d 86bf cf3c
00000090: 7d1c fd3d 57d6 1ebe cdbc e8bd f028 073e
000000a0: 30ba c3bd 6fb7 4c3e 7884 83be f6eb 833e
000000b0: ee2d 98be 0f3c 6bbe 252f 28be 2884 133e
000000c0: 02f4 85bd 824d d03e 4f32 653d 8a90 5a3c
000000d0: 637f 333e de25 74be b6c7 babd dca8 85bd
000000e0: bcf4 48be 211a 62be f8ab 113e 932b 5d3c
000000f0: 5084 9c3d 6522 603e 2ceb 823e f337 35be
00000100: 5bdf 2d3e 0bc7 653d 83be 9fbd d1e6 80be
00000110: c2f6 353e 1017 7b3e 3cfc c73d d829 03bc
00000120: b63f 14be 5434 0b3e db21 913e d166 3ebe
00000130: a33a 4cbe 9bbf 133d a7f7 c73c 2173 97bd
00000140: b946 203e c309 b6bd 9203 3dbe 8414 a13e
00000150: 379f 023e 0183 89be b3e4 143e 0089 673d
00000160: 63ff 803e 74a4 2bbe f164 3ebd b96a c9bd
00000170: 0c24 0ebd fa65 f4bb 46ee 1b3d 20a3 a7bd
00000180: 5e60 483e a2a7 abbe e342 15be fb02 80be
00000190: 9547 223e 84cb 323e 2f91 123e 740c 8a3e
000001a0: f6cb 373e 2bba 73be 06af 963e da00 f7bd
000001b0: fbbd 313e 64f7 003d 7116 493e 9d87 a63d
000001c0: 1bb9 7a3d 5d4a 24be 913e 1c3e 3d61 40be
000001d0: 0ede de3e 72fa 0b3e ba24 c5bd e402 32be
000001e0: ec3d eebd e54f 483e d657 03be c036 93be
000001f0: e6e1 5fbe aa96 aa3e f633 263e c9e8 fb3a
00000200: ff2e 973e 78e2 7d3e 8bb7 21be 8f0a 343e
00000210: 988c 67be f32b 32bd 961b 463e 2872 9abe
00000220: ee1d 39be d9d7 77be b7ac fe3d a170 95bd
00000230: 50cb cebd e599 56bd 6910 03be 49ac 17be
00000240: 390f 403e 59f4 51be 6689 4dbe a019 363c
00000250: 03fa 45be 851c e5bd ce6c 8a3d b971 f0bd
00000260: 70e9 263e 8210 2c3e be15 673e 525f 8c3d
00000270: 898a 2dbe 37c6 86bd 4608 14be f5ba 1dbe
00000280: 5533 b73d e951 4e3e 8086 fdbc 3014 78be
00000290: f4ec 3cbc 23de 883d 7f19 7abe 39e0 9abe
000002a0: 54f0 09be 6309 34be 09df 383d c2d9 91be
000002b0: 5563 9c3e 2a9e dc3e b116 3cbe 0f56 773e
000002c0: 7844 663e f499 a13e 6e98 2b3d 2f3e 8a3e
000002d0: 1f38 1abd d1dd e03d 7691 0cbe 19cb 2abe
000002e0: c256 06be 0418 70be 2c5b 00be 1286 74be
000002f0: 74ea 07be cf75 39be 2b49 9c3e 12c7 943e
00000300: b14c 30be 0897 60be 057f 083e 4417 ab3d
00000310: 374e 1a3e a743 32be d013 2dbd 17e2 c63e
00000320: caf6 8cbd 12a8 af3c 761f f43d d4e0 913e
00000330: 434b 5b3d 9944 943e ab1f fb3e f59d 223f
00000340: bb9e 713d 0ea3 8dbc 3380 88be 31a0 bc3e
00000350: 8778 7ebe 4fb5 37be 1af5 8fbe 0606 843e
00000360: e1f8 923e 0e93 a43d 8ffc 6e3e dd9e e43d
00000370: 0fae 30be 8854 be3e 0c93 b3be a02a 92bd
00000380: bc76 263e 1b92 053f ef39 a73e 1f65 753e
00000390: 39a1 c7bd 7984 37be 8358 46be 9f15 33be
000003a0: 6b97 27be 72de 813e 31bf 0f3f f2f6 153e
000003b0: d947 69be 3323 573e 4883 ee3b 6af8 f63e
000003c0: e66e c4bc 5193 f0bd 848d 6b3e 40d3 683e
000003d0: 9207 3cbe 3d8c 513d aee8 103f ecb1 6fbe
000003e0: 47de 623e a902 96be 2f5a 92be cbe5 893e
000003f0: df4e 5fbe 0c65 5e3c 1bf6 05be c2ad 35be
-0.20261747 -0.17753725 0.20015891 -0.032396507 0.21779771 -0.16856682 -0.26064712 0.109538205
-0.19442229 0.37911278 -0.12930483 -0.08188001 -0.043109123 0.053562026 -0.08738709 0.06426621
-0.012929985 0.105364576 -0.30335116 -0.028507741 0.037010692 0.06538308 -0.25804058 0.072765775
-0.19767316 -0.05539419 -0.38277695 -0.22819845 0.19695811 -0.04536595 0.123594746 -0.034745697
-0.13819227 -0.15401077 0.12226721 0.02535988 0.12358949 -0.15511452 -0.11364136 0.1319921
-0.09556997 0.1999185 -0.25687003 0.2576596 -0.29722542 -0.2297213 -0.16424234 0.14405882
-0.065406814 0.40684134 0.05595618 0.013340125 0.17529063 -0.2384257 -0.09120123 -0.06526348
-0.19624609 -0.2208028 0.14225757 0.013499158 0.07642424 0.2188812 0.25570047 -0.17697124
0.16979735 0.056098025 -0.07800009 -0.251761 0.17769912 0.24520516 0.09764907 -0.008005582
-0.14477429 0.1359418 0.28346142 -0.18593909 -0.19944243 0.0360714 0.024410082 -0.07395006
0.15651979 -0.08888581 -0.18458393 0.31460965 0.12756048 -0.2685776 0.14540367 0.056527138
0.25194845 -0.16761953 -0.046482984 -0.09834809 -0.034702346 -0.0074584456 0.038069032 -0.081854105
0.19568011 -0.3352633 -0.14576297 -0.25002274 0.15847619 0.17460448 0.14313196 0.26962626
0.17948899 -0.23801486 0.29430407 -0.12060709 0.17357628 0.03148593 0.19637467 0.08131335
0.061211687 -0.16043992 0.15258242 -0.18787093 0.4352879 0.13669756 -0.09626146 -0.17383915
-0.116329044 0.19561727 -0.12826476 -0.28752708 -0.21863517 0.33318073 0.16230759 0.0019219156
0.29528043 0.24793422 -0.15792672 0.17582153 -0.22612226 -0.043498944 0.1934646 -0.3016522
-0.18077824 -0.24203433 0.124352865 -0.07296873 -0.100973725 -0.05239286 -0.12799229 -0.14811815
0.18755807 -0.20503367 -0.20071945 0.011114508 -0.19333653 -0.1118708 0.06759034 -0.11740441
0.16299987 0.16803172 0.22566888 0.068541184 -0.16947378 -0.06580775 -0.14456281 -0.1540335
0.08945338 0.20148434 -0.030947924 -0.24226451 -0.011531103 0.06682994 -0.24423788 -0.30249193
-0.13470584 -0.17581706 0.045134578 -0.2848645 0.30544534 0.4308942 -0.18368031 0.24153922
0.22487056 0.3156277 0.041893415 0.27000567 -0.037651177 0.10979808 -0.13727364 -0.16679038
-0.13119033 -0.23446661 -0.1253478 -0.23879269 -0.1327303 -0.18111347 0.30524573 0.2905813
-0.17216755 -0.21932614 0.13329704 0.08354047 0.15068899 -0.1740862 -0.042255223 0.38844368
-0.06883009 0.021442447 0.11920063 0.28491843 0.053538572 0.28958586 0.49047598 0.63522273
0.058989268 -0.017289665 -0.26660308 0.36840966 -0.24850665 -0.17940257 -0.28116685 0.25785846
0.28705505 0.08035861 0.23338531 0.11163113 -0.17253898 0.37173867 -0.35073125 -0.07137036
0.16256231 0.52176064 0.32661387 0.23964356 -0.09747548 -0.17921628 -0.19369702 -0.17488717
-0.16366355 0.25365025 0.5615111 0.14644983 -0.22781314 0.21009521 0.0072788335 0.482364
-0.023978662 -0.117468484 0.23003203 0.22736835 -0.18362263 0.051159132 0.5660504 -0.23407716
0.22155105 -0.29298905 -0.2858443 0.2693313 -0.2180743 0.013573896 -0.13082163 -0.17742065

fc3.bias f4 [2]
00000000: 1fac 66bd 245f fc3b
-0.05631649 0.0077017713
