ckpt/ckpt_best_critic_1.pth (torch, 87029 bytes, 13 tensors)

bn1.weight f4 [128]
00000000: ecfc 783f 4a41 453f d229 373f 4e32 693f
00000010: b28a 5d3f c375 3d3f 7cd1 7f3f fa0b 583f
00000020: a1d9 593f c58d 4d3f 47f1 7e3f 26e7 4f3f
00000030: 01fa 383f bb17 693f b64a 4a3f e8c1 373f
00000040: 910f 6f3f aeb7 853f b028 343f 2a2c 503f
00000050: f8f4 503f 1b86 643f 497b 5f3f a606 523f
00000060: d606 673f deae 843f 7d12 6a3f a1f8 603f
00000070: b9ca 4e3f a3c4 633f 18cf 663f 1ac8 573f
00000080: 3272 593f ba75 683f d081 913f bcae 9e3f
00000090: 43a4 943f 794b 743f ff43 6e3f 5b90 5f3f
000000a0: 39b5 4d3f 9957 3f3f 9d83 4e3f 13ff 6d3f
000000b0: 939b 423f 23bf 673f ed4a 4d3f d465 5c3f
000000c0: 916e 563f a92e 6c3f 3a47 8b3f 3cf4 653f
000000d0: 39ee 383f 5f33 6c3f 8708 803f 7896 933f
000000e0: e455 4f3f a0ef 603f 307a 843f 7079 623f
000000f0: a750 973f 8d3c 6d3f 717b 683f 825f 6c3f
00000100: ba60 553f 458a 4b3f 726a 613f 5e16 433f
00000110: 6dfa 5b3f ef1e a13f 4ffa 6c3f 4cb0 833f
00000120: 7cf7 453f 2f6f 7e3f 7713 573f aacb 5d3f
00000130: 61ff 503f de49 4f3f 0190 523f 1fde 983f
00000140: 33ec 3a3f 7da2 483f d966 4e3f a99d 7e3f
00000150: d42d 513f d407 853f 0251 633f 8b84 813f
00000160: 12b9 773f ba97 583f aecd 3b3f 0592 b03f
00000170: 71a8 593f 4e47 833f c460 353f d0af 4f3f
00000180: 50fe 533f 077f 773f 3134 503f 7790 5d3f
00000190: 9f73 563f e42f 483f e866 4c3f a53b 5b3f
000001a0: 3e2e 523f f1ea 5a3f 36f1 673f 6560 5d3f
000001b0: 8faa 6d3f bd61 513f 0bf7 793f 47a3 723f
000001c0: ee5b 5c3f 3f03 7e3f 5125 673f 953c 553f
000001d0: 0e5d ab3f d6dc 6e3f 1455 5f3f 1792 4a3f
000001e0: ed40 713f 85e1 703f 092f 673f 939e 6a3f
000001f0: 68bb 583f b614 6f3f 1a99 693f e861 983f
0.9726093 0.7705275 0.7154819 0.91092384 0.8653976 0.74007815 0.9992902 0.84393275
0.850977 0.8029445 0.9958691 0.8121208 0.72256476 0.91051835 0.7902025 0.7178025
0.9338313 1.044668 0.70374584 0.8131739 0.8162379 0.8926713 0.87297493 0.82041395
0.90244806 1.0365865 0.9143446 0.8787938 0.8077808 0.8897192 0.9015975 0.84289706
0.84939873 0.90804636 1.1367741 1.2397075 1.1612629 0.9542766 0.93072504 0.87329644
0.8035465 0.7474304 0.80669576 0.9296734 0.7601864 0.90526026 0.8019245 0.8609288
0.8376246 0.922587 1.0881112 0.898258 0.722385 0.92265886 1.0002602 1.1530294
0.80990434 0.8786564 1.0349789 0.8846655 1.1821488 0.9267052 0.90813357 0.92333233
0.8335072 0.7950786 0.8805305 0.76206005 0.85928994 1.2587565 0.9256944 1.0288177
0.77330756 0.993884 0.84014076 0.8663889 0.8163968 0.8097209 0.8225098 1.1942786
0.7301666 0.7837294 0.80625683 0.9945932 0.81710553 1.0393014 0.88795483 1.0118574
0.9676677 0.84606516 0.7336072 1.3794562 0.85022646 1.0256135 0.7085078 0.81127644
0.82809925 0.96678203 0.8132964 0.8654856 0.83770174 0.78198075 0.7984452 0.85637885
0.8210181 0.8551474 0.90602434 0.8647521 0.92838377 0.8178976 0.9764258 0.9478039
0.86077774 0.99223703 0.90291315 0.83295566 1.3387773 0.9330572 0.87239194 0.79129165
0.94239694 0.94094115 0.90306145 0.91648215 0.8466096 0.9339098 0.9124924 1.1904879

bn1.bias f4 [128]
00000000: 4149 093e ebbb 98be b7e4 4b3d e074 b53d
00000010: 339f 8bbe cff7 f93d 3c09 50be ba11 9a3e
00000020: 6169 7d3e c28e 4dbe 8a47 d6bd cc2e c9be
00000030: 0c5f 053e 37b8 80be f1c9 32be d084 6a3e
00000040: 9493 eebd 31fc 893d 1136 76bd d320 833d
00000050: 089a 9b3d d1aa 97bc 0c9a 36bd 0293 55bc
00000060: 2d82 66bd c6f1 813d 25a8 be3e c8ce c43e
00000070: 881b 70bd 2690 b43d f795 5fbe 139a 9e3e
00000080: 43da 2ebe dd8e 7a3d d89f 8fbe 5485 143e
00000090: 3fce 383e da45 f63d 13b3 d0bd 14fe 8a3d
000000a0: 3288 4a3e 5416 fcbc 71f4 8fbd 1fde babd
000000b0: f8c6 313e aa4e 9e3e 96b6 513e 4cc3 493d
000000c0: c872 abbe 6737 38bd ce2e 42bd 17d3 013e
000000d0: 0735 73be 3ea0 b2bd 899d 34be ae94 9f3e
000000e0: f411 08be e95b 23be 130a 7c3e b703 c93d
000000f0: a38b 8d3e 0271 b63d b87a 813e 6872 213e
00000100: 142d 0b3e 432e 1a3e 61b9 223e e43d 373d
00000110: 525d 933e f603 3c3e 3d29 ce3d cac0 2e3e
00000120: 16ca 5b3d 0173 8cbe 66ab 413c ae2b 803e
00000130: c5d2 eabd 1643 0f3e 9225 a93d 96fc 413e
00000140: 426d 8d3e 0dc4 ccbe 0eb0 4dbe f8f1 a43d
00000150: 056f 713e d321 503e 2ac9 ad3e a434 c23e
00000160: 494c 353e 8498 a2bd 9b1c 01bd e375 753e
00000170: 26e8 22be fd07 273e 93c4 6abd 43f3 98bd
00000180: b3d7 d2be afae 553e 0c14 353e 4c0b 8e3e
00000190: 63ee 86be 44cf 8abe c0b9 853e aaea 763e
000001a0: 2969 863d 00e8 8ebe e9fe fa3d 1b72 373e
000001b0: c250 453e 2c93 9c3d 4b31 a1ba 0258 c8bd
000001c0: e8bf fc3c 4974 163e 8ca9 83bc 02fe 9fbd
000001d0: 0446 cd3d 479f fabd 4853 153b 6a5e aabd
000001e0: 29a2 f2bd 626a 1bbc bcfa 04be 33c0 903e
000001f0: d1ea 273e ba3b 813e 38c4 87bd 1195 0f3e
0.1340685 -0.2983087 0.049778666 0.08860183 -0.27269897 0.12205469 -0.20316023 0.3009165
0.2474723 -0.20073989 -0.10462864 -0.39293516 0.13024539 -0.25140545 -0.17459847 0.22902226
-0.11649242 0.06737555 -0.060110155 0.06402745 0.075977385 -0.018514069 -0.044580504 -0.013035538
-0.05627649 0.06344943 0.3723766 0.38439012 -0.058620006 0.08816557 -0.21834551 0.30976924
-0.17075448 0.0611714 -0.2805164 0.14503986 0.18047427 0.12025042 -0.10190406 0.06786743
0.19778517 -0.030772366 -0.070290454 -0.091243975 0.17361057 0.3091939 0.20479807 0.049258515
-0.3348601 -0.04497471 -0.047407918 0.1267818 -0.23750697 -0.0872197 -0.1763822 0.3116812
-0.13288099 -0.1595303 0.24613218 0.09815162 0.27645597 0.08908273 0.2528894 0.15766299
0.13591415 0.1505671 0.15891029 0.044736758 0.28782135 0.18360886 0.10066459 0.1706573
0.05365952 -0.2743149 0.01182065 0.25033325 -0.11465982 0.13990435 0.08259119 0.1894401
0.2762242 -0.39993325 -0.20086691 0.080539644 0.23577507 0.20325403 0.33942538 0.37930787
0.17704882 -0.07939246 -0.03152142 0.23970751 -0.1590887 0.16311641 -0.057316374 -0.074682735
-0.4118019 0.20867418 0.17683429 0.27742994 -0.2635375 -0.27111256 0.26118279 0.24112955
0.065630265 -0.27911377 0.122556515 0.17914622 0.19269088 0.07645258 -0.0012298016 -0.09782411
0.030853227 0.14692797 -0.016072057 -0.0781212 0.1002312 -0.12237411 0.0022785235 -0.08318789
-0.11847336 -0.009485813 -0.12986273 0.28271636 0.16398169 0.2524088 -0.06629223 0.14021708

bn1.running_mean f4 [128]
00000000: f390 bc3f a4cc 1e40 2f53 4e3f 3ac4 0c40
00000010: 0400 0000 52c1 1c3f db96 763f ea1e ad3f
00000020: 7052 6a3f 9187 8840 1ad5 773f ace3 8940
00000030: 2a39 a93e 6ff5 2140 23ff 3640 4450 673f
00000040: cc5f a840 5a1b b93f ee94 ed3e fbf4 913f
00000050: 63fb a03f 7302 6a40 f872 2240 b8d0 5740
00000060: 0c72 0f40 93ad 613e 7ee4 c940 d936 cb3f
00000070: 0195 4d40 4176 3240 1af5 0540 d42e 2640
00000080: 2b60 5340 4bd6 a63f f61f 183f 4484 c63e
00000090: 5ea2 443e 32f5 ed3f 50ba 133f 118a 6840
000000a0: 8257 d13e 7adf 6e3f 2ccc d13e c1bc c93f
000000b0: 71f0 393f 1625 1540 6b4a b73e 8dfd 6c40
000000c0: d86f 9440 4313 1340 3dc9 ce3f 7d7a 8140
000000d0: 6de0 363f 29a6 0a3f 748a a23f 5e59 d13f
000000e0: 0a09 7240 c598 bb3f 6984 283f a4fe e43f
000000f0: 92f0 6040 e747 bd3f 651c f53f fc24 1140
00000100: 679a 4c40 c105 c73e 80fe c13f cdc3 3740
00000110: 54de 3e40 085f 433e 0340 c13d 7d31 8e3f
00000120: a7be 5e3f eab7 cd3e d61f 1440 3ca7 643f
00000130: 8dea a63f 7e26 0b3f b020 723f 2591 de3e
00000140: c5d6 213f 2fc4 c03f c9fc 883f 07d5 bf3f
00000150: 5d9f 8940 75ff 5d40 bd6b 6a40 a48e d03f
00000160: 39d2 af3f d0c1 4f3f de51 813f f7dc da3c
00000170: 954a 3c3f f97d 843f 09fa 6d3f b724 0340
00000180: aa17 a040 f54f aa3f a842 0240 077e e240
00000190: 0537 9a3f 5e17 e53f 5728 cd3f 708b 6340
000001a0: 6b12 1240 1a4f 363f 59c4 6d3f 575c ae3f
000001b0: b2d2 ac3f 49b2 ca3f 0d09 5c40 9c84 0a40
000001c0: 6abc 1f3f 3523 cf3e b036 7a3f edff 1a40
000001d0: cf15 6d3d b17a 523f 5e43 2b40 75c7 9840
000001e0: 8e6b 173f b895 6640 64ec 1040 dc90 1540
000001f0: d49d 2f3f 7c4c 4e3e fa62 5f3f 5b87 b43f
1.4731735 2.4812403 0.8059568 2.1994767 6e-45 0.61232483 0.9632394 1.3525059
0.9153204 4.2665486 0.9680954 4.309042 0.33051425 2.530605 2.8593223 0.9035685
5.261694 1.4461472 0.46402687 1.1402887 1.2576717 3.6563995 2.5382671 3.3721142
2.2413359 0.2203887 6.309142 1.5876113 3.2122195 2.7884676 2.0930848 2.5966082
3.3027446 1.3034147 0.5942377 0.38772786 0.19202563 1.8590453 0.57706165 3.633427
0.40887076 0.9330975 0.40976083 1.5760728 0.7263251 2.3303885 0.35798964 3.7029755
4.638653 2.2980506 1.6155163 4.046202 0.71436197 0.5415979 1.2698503 1.6355398
3.7818017 1.4655997 0.6582704 1.789021 3.5146832 1.4787568 1.914929 2.2678823
3.196924 0.38871577 1.5155792 2.8713257 2.9823198 0.1907922 0.094360374 1.1108853
0.8700966 0.40179378 2.314443 0.8931768 1.3040329 0.5435561 0.9458113 0.4347011
0.6321834 1.505987 1.0702144 1.4986886 4.3007035 3.4687169 3.6628258 1.629353
1.373603 0.8115511 1.0103109 0.026716692 0.73551303 1.0350944 0.9295965 2.049116
5.0028887 1.3305651 2.0353184 7.077884 1.2048041 1.7897756 1.6027936 3.5553856
2.2823741 0.7121445 0.9287773 1.362193 1.3501799 1.5835658 3.4380524 2.1643438
0.6239687 0.40456548 0.97739697 2.4218705 0.057882126 0.8221846 2.6759868 4.774348
0.5914849 3.602888 2.2644281 2.3369665 0.686002 0.20146364 0.872604 1.4103807

bn1.running_var f4 [128]
00000000: e4bf 3140 ed57 f340 4225 0940 6080 1440
00000010: 0400 0000 51c3 ef3f 5bfb 1640 5006 1b40
00000020: 54b4 2c40 5c5e 2b41 aa3a 4940 a63a 8141
00000030: a170 9e3f c8cb 4041 df00 2241 c847 7b40
00000040: 3e63 2041 bd16 7f3f 800d 9a3f b7dc 2840
00000050: 3378 c540 d861 1841 7feb 8940 3491 f740
00000060: 5e26 5f40 604c 773e 6789 9640 65b5 4940
00000070: 1edc 1b41 73a4 ee40 c4e4 4840 61b7 6041
00000080: c2b7 3541 5aaa 7a40 3cbe 963e 2357 8b3e
00000090: 5b59 0d3e bf70 8c40 df52 6b3f 13d2 5641
000000a0: 451a 673f 2731 0940 a100 c23f 0d94 5440
000000b0: a1ae f03f 696e be40 5a01 883f 7b9b 9e41
000000c0: e16d 7941 588d c040 47c3 7140 3eb3 0541
000000d0: 9762 0840 7f7e c43f 44ef 6940 1312 3640
000000e0: b1ef 6b41 7550 8740 802a 893f f35b 8640
000000f0: ebb0 3340 9305 b640 bb26 3240 bb4a 8f40
00000100: b29a 0141 1f5f 583f 4bba 5540 d37b 2241
00000110: 3252 3d41 b25a 433e ea58 473e 7476 2b40
00000120: c7d2 3240 63be 2d3f 5403 2841 a8e0 ff3f
00000130: 5273 3b40 92c2 fc3f fd4d 5140 5812 293f
00000140: 64c5 3940 bac2 8d40 c60b 4e40 6912 1340
00000150: 90cd 3441 0a3d 8a41 d77a 3b41 649b 8d40
00000160: e8f1 2640 3c44 c43f 4b19 1140 387f 3b3d
00000170: 1717 c23f be42 a33f 98a7 fe3f 6916 7d40
00000180: 6db3 9d41 3875 5d40 7fb4 b040 f2b4 d940
00000190: f244 1540 9f70 fb40 efe2 a440 598a 6d40
000001a0: ea89 3541 37ae 0340 ed88 4040 0c20 2540
000001b0: 289a dc3f 9df0 8240 bf87 2341 334c ad40
000001c0: eea4 8b3f 3b08 923e 8232 7240 4d44 1641
000001d0: ba0b 753d 3cad 2e40 48b9 2341 974d 7041
000001e0: 04aa ae3f e9eb 9c40 a949 f240 3633 dd3f
000001f0: dcf2 be3f eea0 803e d094 a33f c87d 8140
2.777337 7.604483 2.142899 2.3203354 6e-45 1.8731481 2.3590915 2.4222603
2.6985064 10.710537 3.1442056 16.153637 1.2378122 12.049751 10.125213 3.9262562
10.024229 0.9964407 1.203537 2.6384714 6.1709228 9.523888 4.309997 7.736475
3.4867167 0.24150229 4.7042727 3.1516964 9.74124 7.4575744 3.1389627 14.04477
11.357363 3.9166474 0.29442012 0.27214918 0.13803618 4.388763 0.91923326 13.426288
0.9027446 2.143625 1.5156442 3.3215363 1.8803293 5.950978 1.0625412 19.825918
15.589326 6.017254 3.7775438 8.35626 2.1310174 1.5351104 3.6552286 2.8448532
14.746018 4.2285714 1.0716095 4.1987243 2.8076732 5.6881804 2.783614 4.4778724
8.100267 0.84520143 3.3394954 10.1552305 11.832567 0.19077566 0.19467512 2.6791048
2.7941148 0.6786863 10.500813 1.9990435 2.9289136 1.9746878 3.270385 0.66043615
2.9026728 4.4300203 3.2194686 2.2979987 11.300186 17.279804 11.71749 4.4252186
2.6085148 1.5333323 2.2671688 0.045775622 1.5163296 1.2754743 1.9894896 3.9544928
19.71261 3.4602795 5.522033 6.803338 2.332333 7.8574977 5.152702 3.711569
11.34617 2.0575082 3.0083573 2.580081 1.7234545 4.0918717 10.220641 5.4155517
1.0909708 0.28521904 3.7843328 9.391675 0.059825636 2.7293234 10.232735 15.018943
1.3645635 4.9037976 7.5714917 1.7281253 1.4917865 0.2512278 1.2779789 4.046604

bn2.weight f4 [100]
00000000: 0000 803f 0000 803f 0000 803f 0000 803f
00000010: 0000 803f 0000 803f 0000 803f 0000 803f
00000020: 0000 803f 0000 803f 0000 803f 0000 803f
00000030: 0000 803f 0000 803f 0000 803f 0000 803f
00000040: 0000 803f 0000 803f 0000 803f 0000 803f
00000050: 0000 803f 0000 803f 0000 803f 0000 803f
00000060: 0000 803f 0000 803f 0000 803f 0000 803f
00000070: 0000 803f 0000 803f 0000 803f 0000 803f
00000080: 0000 803f 0000 803f 0000 803f 0000 803f
00000090: 0000 803f 0000 803f 0000 803f 0000 803f
000000a0: 0000 803f 0000 803f 0000 803f 0000 803f
000000b0: 0000 803f 0000 803f 0000 803f 0000 803f
000000c0: 0000 803f 0000 803f 0000 803f 0000 803f
000000d0: 0000 803f 0000 803f 0000 803f 0000 803f
000000e0: 0000 803f 0000 803f 0000 803f 0000 803f
000000f0: 0000 803f 0000 803f 0000 803f 0000 803f
00000100: 0000 803f 0000 803f 0000 803f 0000 803f
00000110: 0000 803f 0000 803f 0000 803f 0000 803f
00000120: 0000 803f 0000 803f 0000 803f 0000 803f
00000130: 0000 803f 0000 803f 0000 803f 0000 803f
00000140: 0000 803f 0000 803f 0000 803f 0000 803f
00000150: 0000 803f 0000 803f 0000 803f 0000 803f
00000160: 0000 803f 0000 803f 0000 803f 0000 803f
00000170: 0000 803f 0000 803f 0000 803f 0000 803f
00000180: 0000 803f 0000 803f 0000 803f 0000 803f
1.0 1.0 1.0 1.0 1.0 1.0 1.0 1.0
1.0 1.0 1.0 1.0 1.0 1.0 1.0 1.0
1.0 1.0 1.0 1.0 1.0 1.0 1.0 1.0
1.0 1.0 1.0 1.0 1.0 1.0 1.0 1.0
1.0 1.0 1.0 1.0 1.0 1.0 1.0 1.0
1.0 1.0 1.0 1.0 1.0 1.0 1.0 1.0
1.0 1.0 1.0 1.0 1.0 1.0 1.0 1.0
1.0 1.0 1.0 1.0 1.0 1.0 1.0 1.0
1.0 1.0 1.0 1.0 1.0 1.0 1.0 1.0
1.0 1.0 1.0 1.0 1.0 1.0 1.0 1.0
1.0 1.0 1.0 1.0 1.0 1.0 1.0 1.0
1.0 1.0 1.0 1.0 1.0 1.0 1.0 1.0
1.0 1.0 1.0 1.0

bn2.bias f4 [100]
00000000: 0000 0000 0000 0000 0000 0000 0000 0000
00000010: 0000 0000 0000 0000 0000 0000 0000 0000
00000020: 0000 0000 0000 0000 0000 0000 0000 0000
00000030: 0000 0000 0000 0000 0000 0000 0000 0000
00000040: 0000 0000 0000 0000 0000 0000 0000 0000
00000050: 0000 0000 0000 0000 0000 0000 0000 0000
00000060: 0000 0000 0000 0000 0000 0000 0000 0000
00000070: 0000 0000 0000 0000 0000 0000 0000 0000
00000080: 0000 0000 0000 0000 0000 0000 0000 0000
00000090: 0000 0000 0000 0000 0000 0000 0000 0000
000000a0: 0000 0000 0000 0000 0000 0000 0000 0000
000000b0: 0000 0000 0000 0000 0000 0000 0000 0000
000000c0: 0000 0000 0000 0000 0000 0000 0000 0000
000000d0: 0000 0000 0000 0000 0000 0000 0000 0000
000000e0: 0000 0000 0000 0000 0000 0000 0000 0000
000000f0: 0000 0000 0000 0000 0000 0000 0000 0000
00000100: 0000 0000 0000 0000 0000 0000 0000 0000
00000110: 0000 0000 0000 0000 0000 0000 0000 0000
00000120: 0000 0000 0000 0000 0000 0000 0000 0000
00000130: 0000 0000 0000 0000 0000 0000 0000 0000
00000140: 0000 0000 0000 0000 0000 0000 0000 0000
00000150: 0000 0000 0000 0000 0000 0000 0000 0000
00000160: 0000 0000 0000 0000 0000 0000 0000 0000
00000170: 0000 0000 0000 0000 0000 0000 0000 0000
00000180: 0000 0000 0000 0000 0000 0000 0000 0000
0.0 0.0 0.0 0.0 0.0 0.0 0.0 0.0
0.0 0.0 0.0 0.0 0.0 0.0 0.0 0.0
0.0 0.0 0.0 0.0 0.0 0.0 0.0 0.0
0.0 0.0 0.0 0.0 0.0 0.0 0.0 0.0
0.0 0.0 0.0 0.0 0.0 0.0 0.0 0.0
0.0 0.0 0.0 0.0 0.0 0.0 0.0 0.0
0.0 0.0 0.0 0.0 0.0 0.0 0.0 0.0
0.0 0.0 0.0 0.0 0.0 0.0 0.0 0.0
0.0 0.0 0.0 0.0 0.0 0.0 0.0 0.0
0.0 0.0 0.0 0.0 0.0 0.0 0.0 0.0
0.0 0.0 0.0 0.0 0.0 0.0 0.0 0.0
0.0 0.0 0.0 0.0 0.0 0.0 0.0 0.0
0.0 0.0 0.0 0.0

bn2.running_mean f4 [100]
00000000: 0000 0000 0000 0000 0000 0000 0000 0000
00000010: 0000 0000 0000 0000 0000 0000 0000 0000
00000020: 0000 0000 0000 0000 0000 0000 0000 0000
00000030: 0000 0000 0000 0000 0000 0000 0000 0000
00000040: 0000 0000 0000 0000 0000 0000 0000 0000
00000050: 0000 0000 0000 0000 0000 0000 0000 0000
00000060: 0000 0000 0000 0000 0000 0000 0000 0000
00000070: 0000 0000 0000 0000 0000 0000 0000 0000
00000080: 0000 0000 0000 0000 0000 0000 0000 0000
00000090: 0000 0000 0000 0000 0000 0000 0000 0000
000000a0: 0000 0000 0000 0000 0000 0000 0000 0000
000000b0: 0000 0000 0000 0000 0000 0000 0000 0000
000000c0: 0000 0000 0000 0000 0000 0000 0000 0000
000000d0: 0000 0000 0000 0000 0000 0000 0000 0000
000000e0: 0000 0000 0000 0000 0000 0000 0000 0000
000000f0: 0000 0000 0000 0000 0000 0000 0000 0000
00000100: 0000 0000 0000 0000 0000 0000 0000 0000
00000110: 0000 0000 0000 0000 0000 0000 0000 0000
00000120: 0000 0000 0000 0000 0000 0000 0000 0000
00000130: 0000 0000 0000 0000 0000 0000 0000 0000
00000140: 0000 0000 0000 0000 0000 0000 0000 0000
00000150: 0000 0000 0000 0000 0000 0000 0000 0000
00000160: 0000 0000 0000 0000 0000 0000 0000 0000
00000170: 0000 0000 0000 0000 0000 0000 0000 0000
00000180: 0000 0000 0000 0000 0000 0000 0000 0000
0.0 0.0 0.0 0.0 0.0 0.0 0.0 0.0
0.0 0.0 0.0 0.0 0.0 0.0 0.0 0.0
0.0 0.0 0.0 0.0 0.0 0.0 0.0 0.0
0.0 0.0 0.0 0.0 0.0 0.0 0.0 0.0
0.0 0.0 0.0 0.0 0.0 0.0 0.0 0.0
0.0 0.0 0.0 0.0 0.0 0.0 0.0 0.0
0.0 0.0 0.0 0.0 0.0 0.0 0.0 0.0
0.0 0.0 0.0 0.0 0.0 0.0 0.0 0.0
0.0 0.0 0.0 0.0 0.0 0.0 0.0 0.0
0.0 0.0 0.0 0.0 0.0 0.0 0.0 0.0
0.0 0.0 0.0 0.0 0.0 0.0 0.0 0.0
0.0 0.0 0.0 0.0 0.0 0.0 0.0 0.0
0.0 0.0 0.0 0.0

bn2.running_var f4 [100]
00000000: 0000 803f 0000 803f 0000 803f 0000 803f
00000010: 0000 803f 0000 803f 0000 803f 0000 803f
00000020: 0000 803f 0000 803f 0000 803f 0000 803f
00000030: 0000 803f 0000 803f 0000 803f 0000 803f
00000040: 0000 803f 0000 803f 0000 803f 0000 803f
00000050: 0000 803f 0000 803f 0000 803f 0000 803f
00000060: 0000 803f 0000 803f 0000 803f 0000 803f
00000070: 0000 803f 0000 803f 0000 803f 0000 803f
00000080: 0000 803f 0000 803f 0000 803f 0000 803f
00000090: 0000 803f 0000 803f 0000 803f 0000 803f
000000a0: 0000 803f 0000 803f 0000 803f 0000 803f
000000b0: 0000 803f 0000 803f 0000 803f 0000 803f
000000c0: 0000 803f 0000 803f 0000 803f 0000 803f
000000d0: 0000 803f 0000 803f 0000 803f 0000 803f
000000e0: 0000 803f 0000 803f 0000 803f 0000 803f
000000f0: 0000 803f 0000 803f 0000 803f 0000 803f
00000100: 0000 803f 0000 803f 0000 803f 0000 803f
00000110: 0000 803f 0000 803f 0000 803f 0000 803f
00000120: 0000 803f 0000 803f 0000 803f 0000 803f
00000130: 0000 803f 0000 803f 0000 803f 0000 803f
00000140: 0000 803f 0000 803f 0000 803f 0000 803f
00000150: 0000 803f 0000 803f 0000 803f 0000 803f
00000160: 0000 803f 0000 803f 0000 803f 0000 803f
00000170: 0000 803f 0000 803f 0000 803f 0000 803f
00000180: 0000 803f 0000 803f 0000 803f 0000 803f
1.0 1.0 1.0 1.0 1.0 1.0 1.0 1.0
1.0 1.0 1.0 1.0 1.0 1.0 1.0 1.0
1.0 1.0 1.0 1.0 1.0 1.0 1.0 1.0
1.0 1.0 1.0 1.0 1.0 1.0 1.0 1.0
1.0 1.0 1.0 1.0 1.0 1.0 1.0 1.0
1.0 1.0 1.0 1.0 1.0 1.0 1.0 1.0
1.0 1.0 1.0 1.0 1.0 1.0 1.0 1.0
1.0 1.0 1.0 1.0 1.0 1.0 1.0 1.0
1.0 1.0 1.0 1.0 1.0 1.0 1.0 1.0
1.0 1.0 1.0 1.0 1.0 1.0 1.0 1.0
1.0 1.0 1.0 1.0 1.0 1.0 1.0 1.0
1.0 1.0 1.0 1.0 1.0 1.0 1.0 1.0
1.0 1.0 1.0 1.0

fcs1.weight f4 [128, 48]
00000000: 56d7 623c f52f 813d d0cc 1cbd def7 353d
00000010: 7a52 d43d 4f84 103e ef4c fb3c b66a be3c
00000020: 3cb7 823c e55d 323e f4c9 82bc 528d 3cbd
00000030: afd8 d2bd 09c1 423e e4e6 f138 7b2b cdbc
00000040: fe55 1a3e 27be 1d3e fadf 21bd f8df 253d
00000050: 36a5 15be f75d d73d e10a 083d 9b37 a33c
00000060: dbf0 65bd 6ef8 a33c afcd 14bc de2b bebc
00000070: 65eb 7e3d bcb7 fc3d 7859 b03b 8a26 d43c
00000080: 9fd3 a23d 19d8 d23d cc32 1abd d2b0 e8bc
00000090: 7639 013e 0a89 403e c616 943c 8a68 24bb
000000a0: 85c2 153e e8df 923d ba62 a7bc 2277 c93d
000000b0: 8665 923e 1ee2 a03d 0602 113b ca56 7abc
000000c0: d0be 27bd ff35 023e bbda a3bd 1c0c 0a3e
000000d0: 701e b93c aefe 7d3d 503a 7cbd e531 043d
000000e0: bc76 d1bb aff6 5e3e c934 4f3d cfff 99bd
000000f0: 60a4 a03c 2bd7 233d 0c11 adbc 66a8 9dbc
00000100: 83cf 933d b18e 513e 3fc0 ecba da7f c0bc
00000110: 0858 b1bd 556a 143d 669e 80bc 9cac b7bc
00000120: a637 5c3b b5f9 733d d8b3 2b3c f961 7fbc
00000130: a1b8 343b 6e5e a93d e6b6 043d b13e df3d
00000140: 6d0b c13c 9528 563d 7379 93bd f8f7 d43c
00000150: b097 393d 48bf d5bc 6c42 ca3d 546a c7bb
00000160: 81e8 0abe 244e 983d b363 093d 605e 30be
00000170: eb5c da3d df09 043d da03 67bc e9f9 b5bd
00000180: 7102 723d e2da f5bd 2283 683c 8168 a53d
00000190: d96c debc cc31 af3d 2534 093d 9912 113c
000001a0: 9094 e8bc 2f7d 74bd 01d7 6a3d b2fe c3bb
000001b0: 58c1 2b3d 6d51 33bd f781 75bd f41a 013c
000001c0: b6f1 1f3d c3c5 06be 6c6e 5c3d 46ad abbd
000001d0: fb59 22bd 6a0f 5abe 7127 11bc 00d4 4bbd
000001e0: c914 f8bd 4b3c 723e 47ba 97bc fbad 463a
000001f0: 6e2f ae3d 41e8 9e3d 5544 0f3d 088e 5e3d
00000200: c1e8 55bd a60b 9a3e 7298 ccbb d631 0fbd
00000210: 99c1 5bbc 8abf a0bd 0f3d 86bd 3443 5e3d
00000220: f015 d7bc 8ed7 6d3e 2cba b1bc 77d4 463e
00000230: 57b7 d93d 9796 6cbe 5ff7 cf3b 5d14 133e
00000240: e9d8 55bd 33a5 113d dd49 543d c5ce 00be
00000250: 7d52 5a3d e6ed 15be 9735 bdbc aa1d 063d
00000260: 7f01 f7bd c61a 90bd 2599 07bd a51f c1bd
00000270: 4f53 fa3c a358 b9bd cc11 cb3c 4d4b 11bc
00000280: bd2a d13c 9169 d6bd 06a6 953c f4aa a139
00000290: 5783 ee3c 4ec8 923e 90e8 20bd fd97 953c
000002a0: 1430 9e3c 92e1 51bc fe5b 493d ddd6 993d
000002b0: 9bf9 82bd 917f 7dbe 5aa4 2ebd 09dd 66bd
000002c0: 476b d5bc 3c78 c63d 75fe f33c 8395 29bb
000002d0: bbc6 29bd 1f22 eebd d882 e5bc 3aec 2cbb
000002e0: ab5e a9bd 64e9 333c c2f8 c9bb 8823 65bb
000002f0: 27cd 4f3d c848 953e f900 803d 9dec 383d
00000300: c888 113e 9f6b 42bc 98a1 fd3c 2a4c f63c
00000310: 349e dc3d 2a42 8bbd e87b 3abd 511c 5dbd
00000320: d39d ef3d ae30 b2bd 56af 6abd 0b31 e93c
00000330: 7294 afbd 65f2 8fbd 240c e73c 6803 0bbd
00000340: 502e da3d ffca afbd 5544 afbc 7c0a bb3d
00000350: fd19 92bd c067 00bd 6df0 413c f031 cf3b
00000360: 713a 9dbc e441 313d 0c2b a03d 4173 153d
00000370: 234f d4bc aff7 883c ec77 a6bd 67ae a5bc
00000380: f4d5 133d c6d4 963d b62e 21bd e710 4b3d
00000390: fd1b 973b 05da 43bd 23c6 d33c ec88 9cbd
000003a0: 2f55 d73d b703 a5bd d0b4 873c a789 463d
000003b0: c805 87bc 128c 853d 65fb bfbc c469 1ebc
000003c0: bf1e 6ebd fb6b dcbd aaa3 6b3c 0801 f23d
000003d0: 1ba4 b43d 08fa d8bc 51c6 343d 204d 0dbd
000003e0: 503b 9ebc b3df 28bd 9d38 8e3b 239e d53d
000003f0: 4165 e3bc 572c 65bc 29c6 85bd 400f 543e
0.013845285 0.06307975 -0.038281262 0.044425838 0.10367294 0.14112972 0.030676333 0.023244243
0.015956514 0.1741863 -0.01596544 -0.04603321 -0.10295235 0.1901895 0.00011534782 -0.025045147
0.15071866 0.15404569 -0.03952024 0.040496796 -0.14613804 0.10515969 0.0332135 0.019923976
-0.0561379 0.020015921 -0.009082242 -0.023214277 0.06223621 0.12339732 0.0053817593 0.025897283
0.0795052 0.102951236 -0.0376461 -0.028404627 0.12619576 0.18802276 0.018077265 -0.0025086724
0.14624985 0.07171613 -0.020432819 0.09837176 0.2859308 0.078556284 0.002212645 -0.015279481
-0.040953457 0.1271591 -0.08000704 0.13481182 0.022597522 0.06201046 -0.06157905 0.032274146
-0.006392328 0.2177379 0.05058745 -0.07519495 0.01960963 0.040000122 -0.021126293 -0.019245338
0.07217314 0.20464589 -0.0018062665 -0.023498464 -0.08659369 0.03623422 -0.01570053 -0.022421174
0.0033602505 0.05956431 0.01047989 -0.015587323 0.0027575868 0.08269964 0.032400988 0.10900629
0.023565019 0.052284796 -0.07200899 0.025997147 0.045310676 -0.026092187 0.0987595 -0.0060856733
-0.13565256 0.07436779 0.033542346 -0.17223501 0.10662254 0.032235976 -0.014100039 -0.08885557
0.05908436 -0.12004639 0.014191421 0.08076573 -0.027151512 0.0855442 0.033496995 0.008854532
-0.028391153 -0.059689697 0.05733395 -0.00598129 0.041932434 -0.043778826 -0.059938397 0.007879961
0.039048873 -0.13161378 0.053816244 -0.08382659 -0.039636593 -0.21294942 -0.008859501 -0.049762726
-0.121133395 0.23655812 -0.018521441 0.00075790257 0.0850514 0.07759143 0.034977276 0.05433467
-0.052223925 0.30087012 -0.006243759 -0.034959637 -0.0134128565 -0.07849033 -0.06554615 0.05426331
-0.026255578 0.23226759 -0.021695219 0.19416986 0.106306724 -0.2310432 0.0063466276 0.14363237
-0.052208815 0.035557937 0.051828254 -0.12578876 0.053301323 -0.14641532 -0.023096843 0.032743134
-0.12060832 -0.07036357 -0.033105034 -0.09429864 0.030557303 -0.09050109 0.02478876 -0.008868051
0.025533075 -0.10469354 0.018267643 0.00030835683 0.029115362 0.28668445 -0.03928429 0.01826095
0.019310035 -0.012810128 0.049159996 0.07511685 -0.06395265 -0.24755694 -0.042637207 -0.05636314
-0.02605213 0.09690902 0.02978442 -0.002587647 -0.04144929 -0.11627602 -0.028016493 -0.002638592
-0.082700096 0.010980938 -0.0061636874 -0.0034963805 0.050732758 0.2915709 0.062501855 0.045147527
0.14212334 -0.011866479 0.030960843 0.030065615 0.10772362 -0.06799729 -0.045528322 -0.053982083
0.117000245 -0.08700691 -0.05729612 0.028465768 -0.085732356 -0.07028655 0.028204031 -0.033938795
0.10653365 -0.0858364 -0.021394888 0.09132859 -0.07133863 -0.031348944 0.011837107 0.0063230917
-0.019192906 0.04327573 0.078207105 0.036486868 -0.025916642 0.016719667 -0.08128342 -0.020224763
0.036092713 0.07364802 -0.039351188 0.049576666 0.0046114908 -0.04781534 0.025851315 -0.07643303
0.10514294 -0.08057349 0.01656571 0.04847112 -0.016482249 0.06520857 -0.023435304 -0.009668771
-0.05813479 -0.10762783 0.014382282 0.11816603 0.08820363 -0.026486412 0.04413444 -0.03449738
-0.019315392 -0.04122896 0.004340245 0.10430553 -0.027758243 -0.013987622 -0.06531937 0.20708942

fcs1.bias f4 [128]
00000000: 7389 b2be ae51 d63d e8f7 4bbc e5c4 d53d
00000010: e180 b6bd 7bed ccbd 9665 4fbe cc4f 4dbe
00000020: f4cf 3bbe a5f4 cfbd 3eb9 723d d42a 833d
00000030: 2e8f 313e f15e e3bd 6d58 893d 90bf 613e
00000040: a4a6 93bd 7500 04be 4eb7 6ebd f4ea bebd
00000050: 4221 b53c 86f5 b5bc 8c57 dfbc 32da 40be
00000060: c808 ab3c 73cf 9ebe 9fb3 07be 4865 81be
00000070: b93e f5bd 7f0b 87bd 4d36 89bd 2bb2 b5bd
00000080: f51b 41bd c2dd 28bc 9eb4 a2bd ca31 2ebe
00000090: 2a93 dbbd 911f 9abd 269c 52bd 37bf 003d
000000a0: 4770 cabd 463a 9cbd fc6d 103b f57c 10be
000000b0: 2cf3 773c 82cf 38bd e63f 73bd cc6e 55be
000000c0: b50a 233d 238a b73d 532b 34be d0ed ab3d
000000d0: 808f ed3d 38ad 00be ba63 29be 3f58 5ebe
000000e0: c3ff 80bb a471 54bd c4bb 3fbe 8215 e93d
000000f0: 3e38 4abe 67e6 913d e785 85bd 8915 17be
00000100: 80c1 053d 6d12 3bbe 2b3d 67be 11dd 1f3e
00000110: c808 18be 2c5a 86be d153 ddbc 89fa afbd
00000120: 3410 afbd dd76 59be f855 d8bb 557f 51bd
00000130: 6f26 5e3d ff5f 4c3e 9bdd 303d 6b46 ebbd
00000140: 38ac 363e 5494 0f3d b1ed 47be e453 b3bd
00000150: fdd3 ab3d 5246 6f3d 3ba4 00be 51bc b8bc
00000160: 02b7 7ebd 5507 febb 45cd 193d 3261 ce3d
00000170: 890f 63be 3e3a 233e b836 56bd 7c59 c23c
00000180: 97e7 493e a73c f4bd 37c7 713e 748f f53d
00000190: a4a4 9c3d 395f 6b3d 19ca 853c e029 a23b
000001a0: 96be 9fbc 3b84 a03d 552a 153e fb1b 2cbe
000001b0: a31e 91bd 8d93 d7bd 85d6 833c dc11 b2be
000001c0: e319 513d 6fe7 73bd 3485 7abd c2f0 023e
000001d0: f453 193d 14d7 3abe 4c57 38be c1a8 1c3e
000001e0: e54e e5bd 05b5 743d f1e8 053d 8da3 b03d
000001f0: 8490 fbbd faad 0ebe 3eca 613c 58f0 6abe
-0.3487049 0.10464798 -0.012449242 0.10437945 -0.089113005 -0.10006233 -0.20253596 -0.20049971
-0.18341047 -0.10154084 0.059258692 0.06404653 0.17339775 -0.11102093 0.06706319 0.22045732
-0.072095186 -0.128908 -0.05828028 -0.093221575 0.022110585 -0.022211801 -0.027263425 -0.18833235
0.02087821 -0.31017646 -0.13252114 -0.25272584 -0.11974854 -0.065939896 -0.0669981 -0.088718735
-0.047145803 -0.010306777 -0.07944606 -0.1701118 -0.10721429 -0.07525552 -0.051418446 0.031432357
-0.098846965 -0.07628302 0.0022038212 -0.14110167 0.01513366 -0.04511977 -0.05938711 -0.20843047
0.039805133 0.08961894 -0.17594652 0.083949685 0.11599636 -0.12566078 -0.16541949 -0.2171335
-0.003936739 -0.05186619 -0.1872397 0.113810554 -0.19748017 0.07124024 -0.065196805 -0.14754309
0.03265524 -0.18268748 -0.22581927 0.15611674 -0.148471 -0.2624067 -0.027017506 -0.08592708
-0.085480124 -0.21236749 -0.006602045 -0.051146824 0.054235872 0.19958495 0.04318009 -0.114880405
0.17839134 0.035053566 -0.19524266 -0.08756235 0.08390043 0.058416672 -0.12562649 -0.022550734
-0.06218625 -0.007752339 0.037549276 0.10077132 -0.22173895 0.15940186 -0.052298278 0.02372431
0.19717251 -0.11925631 0.2361115 0.11990252 0.0764859 0.05746386 0.01633172 0.0049488395
-0.019500058 0.07837721 0.1456693 -0.16807549 -0.070859216 -0.1052619 0.016093502 -0.3477925
0.051050078 -0.059546884 -0.06116219 0.12787154 0.03743358 -0.18246108 -0.18002051 0.1529875
-0.111966886 0.059742946 0.032692853 0.08624945 -0.122834235 -0.13933554 0.013781128 -0.22943246

fc2.weight f4 [100, 132]
00000000: ddb0 823d d82f b23b ba80 34bd ecae 0fbc
00000010: 1e3a 8cbd 838f 1b3a 6f0e 61bd 0c31 4a3c
00000020: bfae 3dbd 851d bbbd 1380 ffbd c518 033c
00000030: 499c b4bc 1d28 03bd 105c 98bb ca34 233c
00000040: f2f8 743d 7188 e9bd cdb1 873c 7d23 12be
00000050: 18fa 85bc ec4d 0c3d aa66 9c3d 871b e93c
00000060: 5cc4 8ebd ccab d6bc d43f c8bc e857 9f3d
00000070: 7308 10be 42c5 7dbd 8ddb c8bd 4f01 753d
00000080: 3e72 89bd 313e 433d 5b7b bbbc 5e7a 323e
00000090: 96a5 bb3d 6032 c7bd 95a4 0bbb 9940 d5bc
000000a0: cf6f 4a3c 7283 adbd 15dc 223d 4aad 8ebd
000000b0: f2ed 82bd ed22 48bd f27b 19bd aec2 053d
000000c0: c8e3 e4bd de59 b3bc 0ed6 44be c943 023d
000000d0: b538 d0bd f0f2 53bd 2390 e63d 8518 febc
000000e0: d98f a73c 098d f93d 8e26 4a3d 582a 1c3d
000000f0: 0897 113c 9185 a1bc 7fb5 f83b 6751 babb
00000100: 2bcd cabc c43a 553d d33c 9dbd a554 7f3c
00000110: 34b6 323d 3f47 2c3c 0d43 aebd 2a6c 233c
00000120: 0063 8f3c 8881 7bbd 60b9 86bb 3de9 283d
00000130: e916 74bd f3f4 cbbd d1f4 b4bb d99f 00be
00000140: b8de febc df3c 8dbc b035 2abc b551 df3c
00000150: 24f4 59ba b00a c23b d4a0 8c3d 074d 39bd
00000160: 895b 5c3d f152 c43b dddc 0bbc c02e 4f3d
00000170: ffb8 043d 7792 ca3d 2abb 38bd 8914 6a3c
00000180: 6a8a 21bc 5b5f a0bc 57e5 673d de3a c43d
00000190: fc06 a8bc 5f9e b6bc 5c89 923d 966c c9bc
000001a0: 33af 19bc 5b48 ea3a 31f9 51bd d3d8 95bb
000001b0: 7675 763a 9066 c0bd b180 e73a fe16 923d
000001c0: 8710 a83d 4ab2 89bc 73ef 0ebe 7a65 04bb
000001d0: f737 0bbe c699 b5bd 6ed1 7ebd 3b00 4b3d
000001e0: 08d4 99bc c12e 123d 09cf 1c3c 3354 39bd
000001f0: 06a4 533d a029 82bd 31d2 7bbc 1c61 af3c
00000200: 7f9c d43c 61d3 24bd 1c72 17bd 4589 63bd
00000210: bd11 63bd 7eab 643d 17a5 bc3c fc7e 56bb
00000220: cb66 bc3d 9d9b d33c f6ef a83d 6cac d03b
00000230: 6a97 05bd 9735 6dbd 85d9 9f3a 8fe0 033d
00000240: 2266 4bbd 73e8 7dbc 25b8 393b e28b 7f3d
00000250: 9a57 cf3c c5d6 d0bd ce98 81bd 893f 84bc
00000260: 6b5f 373b 1aac 2f3d 3728 8a3c dc58 d4bd
00000270: 978c 283d 72bc 183e c9ae 31bd 29cf 6f3a
00000280: 1a26 86bb 3c4a acbc e35c 83bc 98e4 06be
00000290: 0a3b 933d 3281 623c 544d df3d b990 68bd
000002a0: 76dd 293d cfeb bcbd 554e 72bc bc5d 45bd
000002b0: 0028 873c 219b 9dbc 0b62 4c3d 8f2a 903b
000002c0: a086 05be 97b5 42bd 6cc1 173d 6499 c8ba
000002d0: 9709 d13d 1444 783c 8255 8bbd ce17 efbc
000002e0: fcf1 0b3d ffc3 cf3c 208d d6bd 4a3b a8bd
000002f0: 9f27 cf3d 0888 a53d e241 46bd 2f19 68bc
00000300: 9d12 d4bd 187b 5dbc 4189 1a3d 1eec 51bd
00000310: 8a95 c9bd 9bde 9d3c afd5 0dbe 90fb f5bb
00000320: 5d33 f6bc c51c c7bc a38f 103b 7c93 653b
00000330: 14f9 113d 086c 6e3d 7228 73bd afad 72bd
00000340: a11d fabc 756a abbd 59ba 0fbd bb91 823d
00000350: 170e b33c 4674 e23b b604 57bd ef50 483d
00000360: e285 81bd b150 c5bd 3513 bcbd 069a eabd
00000370: 6165 4dbd 445d 8b3d ed59 873b 293c 423d
00000380: 37bb 6b3d a195 a73d 403d 14bd c354 df3d
00000390: c2d6 cf3d fe53 7b3c 28cf 3abc 98a4 e4bd
000003a0: 6b8f bd3c 5878 9f3d 16ad 41bc 09ce cebd
000003b0: b563 64bb 66c7 83bc ab6f 79bc 4a71 eabc
000003c0: abf6 cabc 152a 0dbd f766 1b3d bd26 64be
000003d0: ea22 8c3d 6a69 da3b bb5b ecbc 1dc2 dcbb
000003e0: 00cc 0bbc 2f30 5dbc fa2b 41bd 4bc4 62bd
000003f0: 850a fc3b a5eb a63d c3cf 043c fccf 0f3d
0.0638139 0.0054378323 -0.044068076 -0.008769732 -0.068470225 0.00059341657 -0.054945406 0.012340795
-0.04630923 -0.0913649 -0.124756 0.008001511 -0.022047179 -0.032020677 -0.0046496466 0.009961316
0.059807725 -0.11402977 0.016564274 -0.1427135 -0.016354606 0.034254 0.07636769 0.028455509
-0.06971046 -0.026204966 -0.024444498 0.07780439 -0.14065723 -0.061955698 -0.09807501 0.0598157
-0.06711243 0.047666732 -0.022885969 0.17429492 0.091624424 -0.09726405 -0.0021307815 -0.02603178
0.012355759 -0.08472337 0.039760668 -0.06966646 -0.06393041 -0.048861433 -0.03747172 0.032656364
-0.11176258 -0.021893438 -0.1922228 0.031802926 -0.10167066 -0.051745355 0.11257961 -0.031017551
0.020454334 0.121851034 0.049353175 0.03812632 0.008886106 -0.01971701 0.0075899954 -0.0056859734
-0.024756035 0.052057996 -0.07677617 0.015584146 0.043630794 0.010515033 -0.08508883 0.009974519
0.017503262 -0.061402828 -0.004111454 0.04123806 -0.05959216 -0.0995883 -0.0055223485 -0.12560977
-0.03111206 -0.01724094 -0.010388777 0.02726064 -0.0008314273 0.005921684 0.06866613 -0.045239475
0.053798232 0.0059913327 -0.008536545 0.050581694 0.03240299 0.09891217 -0.04510037 0.0142871225
-0.009859661 -0.019576719 0.0566152 0.095815405 -0.020511143 -0.022292314 0.071551055 -0.02458791
-0.00938015 0.0017874347 -0.051263038 -0.0045729666 0.00094016583 -0.09394562 0.0017662254 0.07133292
0.08206277 -0.016808648 -0.1395853 -0.0020202086 -0.13595568 -0.088672206 -0.062211446 0.049560767
-0.018777862 0.03568912 0.009570845 -0.045246314 0.051670097 -0.063555956 -0.015369938 0.02140861
0.02595353 -0.04024065 -0.036974058 -0.055550832 -0.05543684 0.05582761 0.02302794 -0.0032729497
0.09199294 0.025831038 0.08248894 0.0063682105 -0.032615103 -0.057912435 0.0012195563 0.032196578
-0.04965795 -0.015497315 0.0028338518 0.062389262 0.025310326 -0.10197214 -0.06327973 -0.016143577
0.0027980458 0.04288874 0.016864879 -0.10368511 0.041149702 0.14915636 -0.04337958 0.0009147996
-0.0040938975 -0.021031491 -0.016035503 -0.13173139 0.07188995 0.013824748 0.10903421 -0.056778643
0.041470967 -0.092246644 -0.014789184 -0.048185095 0.016498566 -0.01923901 0.04989819 0.0043996046
-0.13039637 -0.04753646 0.037049696 -0.0015304503 0.10206907 0.01515295 -0.06803419 -0.029186156
0.03416632 0.025362013 -0.10476136 -0.082144335 0.10114979 0.080825865 -0.048402674 -0.0141661605
-0.10355113 -0.013518117 0.03772855 -0.05125057 -0.098429754 0.019271186 -0.13851045 -0.007506795
-0.030053789 -0.02430571 0.002205827 0.0035030534 0.03563793 0.058208495 -0.059364744 -0.05924767
-0.030531706 -0.083699144 -0.035089824 0.06375452 0.021857304 0.0069108335 -0.052494727 0.04890531
-0.06324364 -0.09634531 -0.09183351 -0.11455159 -0.05014551 0.068048984 0.004130593 0.047420654
0.05755159 0.08182836 -0.036191225 0.10904839 0.10148384 0.0153398495 -0.011401929 -0.11164206
0.023139676 0.077866256 -0.011821052 -0.10097892 -0.003484947 -0.016086292 -0.015224378 -0.028618474
-0.024775824 -0.03446396 0.03793999 -0.22280402 0.06842597 0.0066653984 -0.028852334 -0.0067370073
-0.008532524 -0.013500257 -0.04716108 -0.05536298 0.0076916837 0.081504144 0.008106175 0.03511046

fc2.bias f4 [100]
00000000: 91d6 ae3d 218c 7abe 1f55 fdbd 5501 a2bd
00000010: 8c55 c0bc fcc8 1cbd 1613 a4bd 4045 9bbd
00000020: 0a91 11be b2b4 d2bd a14d bebd 840a 31be
00000030: 0f49 aebd 8d2a a9bd 4129 73bc a81a 37bd
00000040: 1eb5 46be 86a5 0fbd 1545 4c3d 7b25 47bd
00000050: 3577 fcbd 8d51 e33d 0648 9fbd eab2 dbbc
00000060: a09a dcbd 0f39 f6bd 63af 22bd 9509 0ebd
00000070: ddc1 bebd 838b 8ebd 504c c9bd 5fa1 37bd
00000080: a587 80bc 4e0e 27be 3c96 95bd a4e6 47bd
00000090: 45e2 a63b 9973 09be e642 0fbd b960 bdbd
000000a0: 07d4 31bd c147 50bd d9ed 27bd 3ee9 223d
000000b0: 04f9 64bd becc f1bd 9027 f9bd ae30 8db9
000000c0: dc88 83bd 4f21 0ebe 30f4 2fbd 826f 03be
000000d0: efd2 053d a150 3fbe d252 14be 28ac 5cbe
000000e0: af67 e0bd aadb e83c 89bc 2abd eebb 1dbe
000000f0: bcab d4bc 31db 3ebe 77cf 3abd 7d23 343c
00000100: 486b d0bc 1e47 53be 446c 41be c464 5cbd
00000110: a337 1cbe a124 6ebb 5275 1ebe 0ec9 b6bd
00000120: 7b1f 30be 5692 9ebd a9ac 24be 4c8e e0bd
00000130: c90e 1ebd d3c3 2bbd e1c8 08be ca06 1cbe
00000140: d1a2 abbc fb23 53be e73e 8dbd 2f92 2bbe
00000150: 78d6 23be 7190 03be 0afa 72bc cc3e 07bd
00000160: 1229 c3bd 4efc 22be 5bb9 8e3c 5ab8 89bd
00000170: e44a 3dbe cc79 e3bc dea0 07be 5ec5 2e3d
00000180: 8f9e 3ebe ca0e 2fbe aac4 1fbc 87ad 9abd
0.08537019 -0.24467517 -0.12369751 -0.0791041 -0.023478292 -0.03827761 -0.08011453 -0.07581568
-0.14215484 -0.10288371 -0.0929215 -0.17289168 -0.085100286 -0.08260069 -0.014841379 -0.044703156
-0.19405028 -0.035069965 0.04987057 -0.04861973 -0.123274244 0.11099539 -0.07777409 -0.026818711
-0.1077168 -0.12022602 -0.039718043 -0.034677107 -0.0931432 -0.069602035 -0.098290086 -0.04483163
-0.01568968 -0.1631405 -0.073040456 -0.04880394 0.0050928914 -0.13423003 -0.03497591 -0.09246964
-0.043415096 -0.05084968 -0.040998314 0.03977322 -0.055901542 -0.118066296 -0.12165749 -0.00026929885
-0.06422588 -0.13879894 -0.042957485 -0.12835506 0.032671865 -0.18683101 -0.14484718 -0.21550047
-0.10957276 0.028425056 -0.041683707 -0.1540372 -0.025960796 -0.18638302 -0.04560801 0.010994789
-0.02544178 -0.20632598 -0.18888956 -0.053807035 -0.15255599 -0.003633775 -0.15474442 -0.08925067
-0.17199509 -0.07742755 -0.1608149 -0.10964641 -0.03858832 -0.0419348 -0.13357879 -0.15236965
-0.02095166 -0.20619194 -0.06896763 -0.16754983 -0.15999782 -0.12848069 -0.014830122 -0.033018872
-0.09529318 -0.15916559 0.017422369 -0.067246154 -0.184856 -0.027768038 -0.1324496 0.042668693
-0.18615173 -0.17095485 -0.009751478 -0.07552629

fc3.weight f4 [1, 100]
00000000: 7c92 f03c 0921 90bd 62d9 3bbd 8fd0 233d
00000010: 798d 8c3c c82d 9f3c 5110 873d d4bd 0e3d
00000020: 7845 b03c feb5 b4bc 64df 14be 0362 403d
00000030: a396 0ebd 2b36 d23d 8d56 dcbc 77bb 14bd
00000040: 7a1f c43d 28e8 90bc 176b 023d 7e4c 053d
00000050: 0106 79bd be8d cd3c e652 473d cacf b23c
00000060: fc65 e9bc 50ec 07bd b7a4 b5bc 36d5 1abd
00000070: 2321 0fbd d100 4a3d 94c5 3bbd a493 aa3c
00000080: 1456 583d 09a2 c4bc 7fc9 acbc 76ac 55bd
00000090: 0f9a 21bd f881 663d 6013 b0bc 3d7c d33c
000000a0: 3cfb 27bd 7b6c e33c 7b33 0bbd 8de5 193d
000000b0: 1a0e edbc bfc7 25bd 1356 40bd 1455 d0bc
000000c0: 584f 85bc 27de 12bd bcf1 343d 509d 8d3d
000000d0: 836c b53c 874a 653d 9cf4 9cbc 83c5 35bd
000000e0: 9278 7bbc 6c6e f1bc 0845 1e3d 03f4 123d
000000f0: 1966 0f3d 61ba d8bc 9446 e53c 0c0e b6bc
00000100: ae77 3d3d 327a 07bd 38ba e53d b090 c73c
00000110: 4040 b2bd d8a4 82bc caca bcbd b564 01bd
00000120: 9609 bd3d 29b4 da3c cb1e a0bc 47a9 8cbd
00000130: 1273 5bbd 97f7 1c3d 6cba 123e 0e2c 3cbd
00000140: 5f75 0c3d ad6c ce3d 2d44 893d 2fde 0dbd
00000150: 7891 16be 51ae b5bc 57d9 f83c 2cbf a4bc
00000160: 6831 643d 23d7 ddbc 6688 35bd 36bc c9bc
00000170: 2933 103e a5bc 0ebd 807a 243d 41d5 973c
00000180: 5a4f 0d3d 7492 ddbd 764d fdbc 9ce1 a8bc
0.029366724 -0.07037551 -0.04586161 0.03999382 0.017157303 0.01943101 0.06594909 0.034849003
0.0215175 -0.022059437 -0.14538342 0.04696847 -0.034811627 0.10264238 -0.02689674 -0.036311593
0.09576316 -0.017688826 0.03184041 0.03254365 -0.06079674 0.025092002 0.048663042 0.021827597
-0.028491013 -0.03318435 -0.022173269 -0.03780099 -0.03494371 0.049317185 -0.045842722 0.020822354
0.052816465 -0.024003046 -0.021092175 -0.052166425 -0.039453562 0.05627629 -0.021493614 0.025816077
-0.04101108 0.027761688 -0.033984642 0.037572432 -0.028937388 -0.040473696 -0.046957087 -0.025431193
-0.016273186 -0.035856392 0.04417585 0.069147706 0.022146469 0.055979278 -0.019159608 -0.044377815
-0.01534857 -0.029471599 0.038640052 0.03587724 0.035009477 -0.02645606 0.027987756 -0.022223495
0.046256714 -0.03307552 0.11217159 0.024360985 -0.08703661 -0.015947744 -0.092183664 -0.031590182
0.09230344 0.026697235 -0.019545933 -0.068682246 -0.053576536 0.038322058 0.14328927 -0.04594045
0.03429162 0.10079322 0.067024566 -0.03463572 -0.1470393 -0.022177847 0.030377073 -0.02011069
0.05571118 -0.027080124 -0.044319533 -0.024625879 0.14082016 -0.034847874 0.040155888 0.018534305
0.034499504 -0.10818949 -0.030920725 -0.020615391
